model/keypoint_classifier/keypoint_classifier.tflite (tflite, 6400 bytes, 6 tensors)

sequential/dense/BiasAdd/ReadVariableOp/resource f4 [20]
00000000: 15bd 69bf bb32 1fbf 01ef 01bf 368e fb3c
00000010: 44a5 2cbf 76c2 dbbe ef08 d73b ff69 01bf
00000020: 2a9b ad3e 2b57 92be 4ad9 edbe 08c4 a8be
00000030: 1035 46bf 9a7e 83be 8c28 0fbe a1c0 26bf
00000040: fa1d 05bf 0366 61be adda 13bf 7d8a e3be
-0.9130414 -0.62186784 -0.50755316 0.03070746 -0.67439675 -0.429218 0.0065623443 -0.5055236
0.33907443 -0.2858213 -0.4645484 -0.3296206 -0.77424717 -0.25682527 -0.13980311 -0.6513768
-0.51998866 -0.2201157 -0.5775555 -0.44441596

sequential/dense_1/BiasAdd/ReadVariableOp/resource f4 [10]
00000000: 9550 883d 19bd 8d3f b382 82be 682b 16bf
00000010: 6c48 42be a973 3ebe 901e 003e 6aac ed3e
00000020: 24c4 933e 6878 553e
0.06655995 1.1073333 -0.2549034 -0.5865998 -0.18972939 -0.18598808 0.12511659 0.46420604
0.2886058 0.20846713

sequential/dense_2/BiasAdd/ReadVariableOp/resource f4 [5]
00000000: ce80 47bf 98a8 79be 58a9 423f 5da7 523c
00000010: 2492 073f
-0.77930915 -0.2438072 0.7603965 0.012857285 0.5295737

sequential/dense/MatMul f4 [20, 42]
00000000: 0062 f73a aee1 963e 9549 30bf 0e06 eabe
00000010: 8de2 ccbe 2eeb a0bd 272a acbe 42ee c0be
00000020: 5e89 e0be 8dad b1be 71e3 38be e762 66bd
00000030: 2cb9 3cbd c2d4 abbc 4fc7 ed3d 8fac 303e
00000040: f1ee 873e f33e 6f3e 9f8e 30bd 81e8 acbc
00000050: cf22 a23c cc7c 97bd 07ac 1ebd ca11 2cbc
00000060: ffd5 40be ee36 123d 962c 25be 412b c43b
00000070: 9470 4abc f3e9 80be 5891 d33c 03e8 c8bd
00000080: 5d35 00be 1842 4bbd ec95 77be bed0 01bc
00000090: 54e2 b9bd 6a23 f4bd 974a c13d de46 60be
000000a0: e8b1 ffbd 4fbc 90bc 3079 5b3e e0de 2cbd
000000b0: 30d3 493e 93ca a33e 45d4 483d add2 993e
000000c0: 44d4 d2bc 3d30 af3e e602 b3bd 3431 903e
000000d0: b205 11bd 2cca 25bd c425 b4bb 3ae3 863d
000000e0: fc3f 0d3e 8019 ea3d a837 4c3e f613 ee3d
000000f0: aa33 ea3d 4ef4 f6bc 96cb 3c3a d33a 903d
00000100: 7e00 96bd f86a 233d dbac 34be 3d03 bf3d
00000110: 1b3b 28bd 09dc febd c558 29bd cfb1 383c
00000120: ccf7 18be 2721 41bf 556f f0be 12e6 86bf
00000130: cd06 f63c dd42 90bd dc07 98bd 43cd 65bd
00000140: c2e1 cfbe d95c cfbe 3115 c2be cc2e 88bf
00000150: ae74 81be 383e 293e 7273 883f 432b bebe
00000160: 7c58 543f 4166 b3be 1aae 213f acac 28bd
00000170: 788d 193f 50ca 493e dcc0 d73e 417b cbbc
00000180: 18f8 4e3e fca3 ea3c 2d56 98be 4820 abbc
00000190: 3d03 e1be c9a5 793d 88c7 573e 4374 e43d
000001a0: 94e4 763e a0e7 413d aae0 b33e 0c73 d83c
000001b0: 169d c03e 9849 7e3d ec1c 973e 7e89 e6bc
000001c0: 306f 4a3d 806b 1dbe 7078 a8bd deb6 c9be
000001d0: 0e22 9d3d b828 f1be f0ab 773e 68c2 bd3d
000001e0: 8a0d 0ebe 89f0 b13d 2093 2fbe 03f6 febd
000001f0: 9bf3 b33d bc0d 78be 9c46 b03d 1656 97be
00000200: cae2 89be bd3b 27be 345f a4be 9c22 05bd
00000210: f41e eabe 4cbc bdbb a462 f2be 68a9 c5bd
00000220: c2b4 bdbd 42ce 0dbc 25af 17be 930d 65be
00000230: 9aa8 fbbb 542a 78be 2259 603e ef05 c8bd
00000240: b026 7bbe dece 7ebc 7e05 dc3c 4902 d03d
00000250: 3636 9b3e 6452 913e 0bfd e53e 897a 703e
00000260: c287 52be ef9e d23b 5285 15be d76d 013e
00000270: c88f a83e 63e6 4f3e 731b 4c3f 7540 ba3e
00000280: 3717 bdbe 35ef dd3c 32f9 26be e6ec 403e
00000290: 675f b13e b17b 973e 4fdd 543f 9478 d23e
000002a0: 8c23 793e 403b d43c 40e8 d03e 873f c3be
000002b0: 10e9 533e 8caf 34bf afed cb3e 5b02 37bf
000002c0: 5cbe 963e 385e 25bf b2fe 92be 39d6 77be
000002d0: 5ce9 cebd e0ba 20be 8687 91bd 6238 933d
000002e0: 9191 85bd 95c5 3e3e 8c8a 823c a199 0abe
000002f0: 3dc4 113c 0564 92be b11f d73d 6293 39be
00000300: 8ee3 df3e 8813 26be f591 5ebd 8b9a 89bd
00000310: 946c 75bb 8083 cebd f040 9c3d f6b2 6d3d
00000320: 0101 fb3e 095d 9e3d c38a 3a3d c424 a2bd
00000330: cfe6 f53c 0b86 e83c b1a3 11be 2cbe 1f3e
00000340: c669 00bd a894 4b3e c85d 4d3e 20f2 be3c
00000350: 396f 293f f6a7 2e3f 29c5 b83e 817b 623e
00000360: ff3d cc3e 66a9 433a 97af 2b3f e230 8abb
00000370: 4fff a9bd 9fac 7bbc 12c9 41bb 4193 cf3c
00000380: 30a5 8dba 8a98 05ba 33d0 edbb 5f0f 2fbd
00000390: 9501 9dbc 1343 59bd a91d 19bd 72ac 62bd
000003a0: c260 3cbe 2cc4 8cbd 356f e1be a392 133b
000003b0: ebcb 533e 9ca5 0bbe 28da 0cbd 5218 00bd
000003c0: 3a5b c7be 8af4 01bd b24d 41bf 0fc1 623d
000003d0: f705 a33e 64c3 8ebd 7833 22bd e083 8c38
000003e0: df69 b0be f82e d23d 663f 53bf b383 7abc
000003f0: 0022 89bd caf1 043e e3a4 13be 7792 9abe
0.0018873811 0.29469055 -0.6886228 -0.45707744 -0.40016595 -0.07857357 -0.3362591 -0.37681776
-0.43854803 -0.3470272 -0.18055512 -0.056246664 -0.04607503 -0.020975474 0.11610281 0.17253326
0.26549485 0.23363857 -0.043104764 -0.02110696 0.019791989 -0.0739685 -0.038738277 -0.010502288
-0.18831633 0.035696916 -0.1613029 0.0059866016 -0.012355942 -0.2517849 0.025826141 -0.09809878
-0.12520356 -0.04962358 -0.24178284 -0.007923303 -0.09076372 -0.11920817 0.09438055 -0.21902034
-0.12485105 -0.017667918 0.21432948 -0.042204738 0.19709468 0.3199049 0.04903056 0.30043545
-0.025735982 0.3421649 -0.08740787 0.2816254 -0.035405822 -0.04047601 -0.005497666 0.06586309
0.1379394 0.11430645 0.19943106 0.11624901 0.114356354 -0.03014579 0.00072019675 0.0704247
-0.073243126 0.039896935 -0.17644064 0.093267895 -0.041071992 -0.12444312 -0.041344423 0.011272862
-0.14938277 -0.7544121 -0.4695994 -1.0538962 0.03003254 -0.07044003 -0.07423374 -0.056103956
-0.40601927 -0.40500525 -0.37906793 -1.0639281 -0.25284332 0.16527641 1.0660231 -0.3714238
0.82947516 -0.3503895 0.6315628 -0.041180298 0.5998149 0.19706082 0.42139328 -0.024839045
0.20211828 0.028642647 -0.29753247 -0.020889416 -0.43947783 0.06094912 0.21072209 0.11154988
0.24110633 0.047340035 0.35132343 0.026422046 0.37619847 0.062081903 0.29514253 -0.028141733
0.049422443 -0.15373039 -0.08226097 -0.3939733 0.07672511 -0.47101378 0.24186683 0.09265596
-0.13872352 0.086884566 -0.17145967 -0.12449267 0.087866984 -0.24223989 0.08607218 -0.29557866
-0.2693084 -0.16331382 -0.32103884 -0.03250371 -0.4572674 -0.005790269 -0.47340882 -0.09651452
-0.092629924 -0.008655133 -0.14812906 -0.2236846 -0.007680011 -0.24234897 0.21909001 -0.09766757
-0.24526477 -0.015552251 0.026858088 0.10156686 0.30314797 0.28383172 0.4491962 0.23484243
-0.205596 0.0064276378 -0.14601639 0.12639557 0.32922196 0.2030273 0.79729384 0.36377302
-0.36931774 0.027091602 -0.16305998 0.1884037 0.346431 0.29586557 0.8315019 0.4110762
0.24329966 0.025907159 0.40802193 -0.38134405 0.20694375 -0.70580363 0.39829776 -0.7148797
0.29442108 -0.6459689 -0.28709942 -0.24202813 -0.101031035 -0.15696287 -0.07105927 0.071884885
-0.06521905 0.18630059 0.015935205 -0.13535167 0.0088968845 -0.28591934 0.105040915 -0.18122628
0.43728298 -0.16218388 -0.054338414 -0.0671893 -0.003744875 -0.100836754 0.07629573 0.058032
0.49024203 0.07732589 0.04554249 -0.07917169 0.030017285 0.02838423 -0.142226 0.15599889
-0.031350873 0.19880927 0.20055306 0.023308814 0.6618534 0.6822504 0.3608792 0.22117426
0.3989105 0.0007463902 0.67064804 -0.004217253 -0.083006494 -0.01536098 -0.002956931 0.02533877
-0.0010806676 -0.00050962775 -0.0072574853 -0.04273927 -0.019165793 -0.053042483 -0.0373818 -0.055340238
-0.18396285 -0.06873354 -0.44030157 0.0022517822 0.20683257 -0.13637394 -0.034387738 -0.031273194
-0.38936788 -0.03172735 -0.7550918 0.055359896 0.31840488 -0.069708616 -0.039599866 6.700284e-05
-0.34455773 0.10262865 -0.82518613 -0.015290189 -0.06695938 0.1298286 -0.14418368 -0.3018987

sequential/dense_1/MatMul f4 [10, 20]
00000000: ee37 84be 8d71 dbbc ba6a db3e f390 b93e
00000010: a745 843f a0ce 183f b950 90bd a9de 603d
00000020: 23a7 eabd 9316 b73e 4ec9 fb3e d31b ed3d
00000030: 6dde 02bf 00b4 12bf fe1b 9f3e 50ee 303e
00000040: 5819 043f a9c5 113d 1a2b 4f3d 3e60 c53d
00000050: 5164 ebbd bd1e 03bd d8ea 6b3e 66f2 7b3e
00000060: e090 6e3e efaa c8be fd43 1cbd 017b 583f
00000070: e5d6 423f 9701 02be 4ba6 c93e 8282 04bf
00000080: ebb4 fdbd d8a3 62be 0007 873f 646e 1e3f
00000090: 7756 aabe 32a5 2d3f f173 3a3f a9e9 bd3d
000000a0: 0f1c 693f 4599 80bd ac24 b5be 04ac 873d
000000b0: 297c 37be 4459 fa3d c1be dc3c 96b5 323e
000000c0: df27 a23d 170f c73d 09df 493f 2d60 693d
000000d0: 2410 693f 9b98 00be 1a61 85bd f04e 333e
000000e0: 107d 83bd 4b00 9c3d a176 8fbe e2f0 903e
000000f0: e35e 633f 3070 253f 486c 423f d9c7 f53d
00000100: 318b 4a3f 6657 ab3f 2cfe 203f bf28 863e
00000110: 86d6 2f3f 4db1 433f 3503 0e3f 1003 833e
00000120: c7bc b13e d216 463f f477 30be f1ba 613f
00000130: 53ed d7bd 6b52 123f 23cd 843f edf2 403f
00000140: 1c8f 6fbe 9713 c2be d0d3 41be 1305 c63e
00000150: d1cf 57bd c387 d43e be75 3bbf 2eb7 2a3e
00000160: 9a72 a83e 6154 333f d7de 913d 9850 523e
00000170: 9c6f 98be a8b9 5a3f 0550 2e3e 8e71 02be
00000180: 0f4d d33d 9815 a63e 7117 af3d f1d8 b4bc
00000190: e79a a9bc aa81 923e 46f2 c63d c10e f43e
000001a0: 7625 1a3e 2a31 163f 7d35 6a3f c2f5 19be
000001b0: 44a7 073f 36ed f63e 1af4 073f e418 2b3f
000001c0: ca90 cebe 3e34 b03e 26e7 203f 62f5 0fbe
000001d0: a60a 813e 0b15 b83e cda1 2fbe 23e6 143e
000001e0: 8714 f43e 7385 363f 7427 313e b18f 0d3f
000001f0: 6fc8 8f3b b538 a13e 5ba8 44bf e1fb c2be
00000200: 81cb 533e 8943 37bf bdf9 683d 30ea 813e
00000210: 7abe 683e 16e6 6ebf 30bf 193e 6bd8 81be
00000220: 67a1 573f 22e8 2cbe 63de ecbd 3f4a 013f
00000230: a485 55be e46c 56bf eb47 d5bb a413 22bf
00000240: 61e1 063e 930c 32bf 03d0 2d3c 02d1 fc3c
00000250: 3fb8 f13d 1ac2 d8be ead7 d4bc 3557 f2be
00000260: c2dd 0abf a393 50bf 002a 583c 5311 d3be
00000270: 7704 b83f b7ba 52be 506f abbe a414 5f3f
00000280: 9c7c c73d 40bd 323e 15d1 5c3f ed03 0c3f
00000290: 375c 073d e8a0 843e 4805 683f 98ca 67be
000002a0: 04fa 283f 2ac7 a33d d9f8 2a3f 045c 893e
000002b0: cac7 093e 6f75 32bc 8111 013e e741 373f
000002c0: 0cd0 a8bd 178e e83e bf0a c83e 4f94 16be
000002d0: dd4c 233f d2fc 5a3f b7ed db3e f345 41be
000002e0: f419 5bbf dab3 443f dc4f df3e 6d0a 10bc
000002f0: 01d9 e13d ffeb 2dbf baec 9fbe fcf8 683f
00000300: 2789 373f 5be7 f23e 2209 21be 50cb f03e
00000310: 52bc a13e 0569 b63d 33aa dd3d d6cc 113f
-0.2582392 -0.026787544 0.42854863 0.362434 1.0333756 0.59690285 -0.070466466 0.054899845
-0.1145766 0.3575941 0.4917702 0.11577573 -0.51120645 -0.5730591 0.31076044 0.17278409
0.5160117 0.035588894 0.050578214 0.09637497 -0.11493743 -0.032011736 0.23038805 0.24604186
0.23297453 -0.39192912 -0.038150776 0.8456269 0.76109153 -0.12695919 0.39384684 -0.5176164
-0.12388023 -0.22132814 1.0549011 0.6188719 -0.33269092 0.67830193 0.7283316 0.09273083
0.9105844 -0.06279234 -0.3537954 0.06624606 -0.17918457 0.12224057 0.026946427 0.17452082
0.07917761 0.09719675 0.7885595 0.056976486 0.91040254 -0.12558214 -0.06512661 0.17510581
-0.06420338 0.076172434 -0.28020194 0.2830878 0.8881666 0.6462431 0.75946474 0.120010085
0.7911864 1.3386047 0.62887836 0.26202962 0.6868671 0.76442415 0.55473644 0.25588274
0.34714338 0.7737857 -0.17233258 0.88175875 -0.10543313 0.5715701 1.0375103 0.75370675
-0.23394436 -0.3790557 -0.18928456 0.38675746 -0.052688424 0.41509828 -0.73226535 0.1667144
0.32899934 0.70050627 0.071225815 0.20538557 -0.2977265 0.8543954 0.17022713 -0.1273863
0.10317432 0.3243835 0.08549393 -0.022076102 -0.020703746 0.2861455 0.09714179 0.47667506
0.15053353 0.5866877 0.91487867 -0.15035155 0.529896 0.48227853 0.53106844 0.66834855
-0.4034484 0.34414858 0.62852705 -0.1405845 0.25203437 0.35953555 -0.17151566 0.14540915
0.4767191 0.7129738 0.17300206 0.5529738 0.004387907 0.31488577 -0.7681939 -0.38082793
0.206831 -0.71587425 0.056878794 0.25373983 0.22728911 -0.93319833 0.15014338 -0.25360426
0.84230655 -0.16885427 -0.115658544 0.50503916 -0.20851761 -0.83759904 -0.0065088174 -0.6331122
0.13171913 -0.69550437 0.010608676 0.030861381 0.1180272 -0.42335588 -0.025981862 -0.4733216
-0.54244626 -0.81475276 0.013193607 -0.41224155 1.4376363 -0.20579039 -0.33483362 0.8714087
0.09740564 0.17455006 0.86256534 0.5469349 0.033046927 0.25904012 0.9063306 -0.22635877
0.66006494 0.07996972 0.6678596 0.26828015 0.1345512 -0.010892256 0.12604333 0.71584934
-0.08242807 0.45420906 0.390707 -0.14705013 0.6378916 0.85542023 0.429548 -0.1887434
-0.85586476 0.7683693 0.43615615 -0.008791548 0.11027718 -0.67938226 -0.31235296 0.9100492
0.7169365 0.47442135 -0.1572614 0.47030115 0.3158899 0.0890675 0.108234785 0.5695318

sequential/dense_2/MatMul f4 [5, 10]
00000000: a0ae 883e c689 8cbe 0f7d 47bf c190 6fbe
00000010: 93c2 623f 4385 8f3f 1643 963e e35f a63c
00000020: fa3c 3dbd 7115 ee3d 0457 113e 139f 923e
00000030: 46a0 c23e f48c af3e 7a86 2cbe d804 2dbe
00000040: ea0b 51bf 445b 89bf 6abc dbbc 81e2 373e
00000050: 8f33 9abe 45c4 7c3f a4db 70bf e395 30bf
00000060: f35a a4be 891c 5d39 e743 5ebf 12f2 d1bf
00000070: 7050 093f 7551 6ebf 47b7 9abf 9c47 a9bf
00000080: f818 2abe 873e 2bbf c6d0 45bf a5e0 3dbe
00000090: 8b4a 0b3f 9371 383e 09fb a7be ff90 563f
000000a0: 3eeb b33e 81bd 2e3f a100 b1bf 883d f7bf
000000b0: b7a1 94bf e8c6 a1bf 1cb6 03bf 901f c23f
000000c0: 67c1 0ac0 2f85 dcbf
0.26695728 -0.27448863 -0.779252 -0.23395063 0.88578147 1.1212543 0.29348058 0.020309394
-0.04620073 0.116251834 0.1419335 0.2863699 0.38012904 0.34287226 -0.16848174 -0.16896379
-0.81658804 -1.0730977 -0.026823241 0.17957498 -0.3011746 0.98736984 -0.94085145 -0.6897871
-0.3210064 0.00021086833 -0.8682236 -1.6401999 0.5363836 -0.93093044 -1.2087182 -1.3224978
-0.16611087 -0.66892284 -0.7727169 -0.18542726 0.5441062 0.18012075 -0.32808712 0.83814996
0.35140413 0.6825791 -1.3828317 -1.9315653 -1.1611851 -1.2638826 -0.5144975 1.5165882
-2.1680543 -1.7228144
