model/keypoint_classifier/keypoint_classifier.tflite (tflite, 6496 bytes, 6 tensors)

sequential/dense/BiasAdd/ReadVariableOp/resource f4 [20]
00000000: e51d 60bf 3bd5 243f 756b dabb cd88 e53e
00000010: 8de6 4cbf d071 34bf c282 80bf 34d7 51bf
00000020: ee57 0ebe 203e 99bf 13af 06bf bd32 5abf
00000030: 1603 3f3e 3512 3dbf 035f 05bf e6df 35bf
00000040: 8766 04bf 2144 a7be 1b14 49bf 00a0 34bf
-0.87545615 0.64387864 -0.006665642 0.44830933 -0.8003929 -0.70486164 -1.0039904 -0.81969
-0.1390073 -1.1972084 -0.5261089 -0.8523367 0.18653521 -0.73855907 -0.520981 -0.71044767
-0.51718944 -0.32669166 -0.78546304 -0.7055664

sequential/dense_1/BiasAdd/ReadVariableOp/resource f4 [10]
00000000: 7da7 a63e dc2b 683e 4117 b53f d7a3 1ebf
00000010: e75c 4abe 34c4 933e 4afe 2e3f e716 99be
00000020: d8c3 b03d fb87 933e
0.32549658 0.22672981 1.4147722 -0.6196875 -0.19762002 0.2886063 0.68356764 -0.29900286
0.08631104 0.28814682

sequential/dense_2/BiasAdd/ReadVariableOp/resource f4 [7]
00000000: 8d50 2ebe 122e f1be a51c 823e 9a22 4c3e
00000010: 3f4d cb3e e45b 9a3e 3ecd a7bd
-0.17022915 -0.4710546 0.2541248 0.19935074 0.39707372 0.30148232 -0.08193444

sequential/dense/MatMul f4 [20, 42]
00000000: 3054 56bd 5e8c 85be b35c 8d3e 4248 c23e
00000010: e5ed 8a3e a8a8 893d 0336 303f 8f05 1c3d
00000020: 0fff 553f d267 c83d 5fdc 24be e1e0 293e
00000030: c279 76bd 274e 9fbd eef3 8fbd c014 2fbe
00000040: a67a a3bd d44d 4cbe 0e81 cabc 86b3 b93d
00000050: 2dd9 05be 3ec1 f3be cfa3 c93c 9908 abbf
00000060: f9cd 3c3e 1565 0dbf e676 873d 13b9 863d
00000070: f2f1 cabd 613d 9bbe 2a42 d43b 693d 523d
00000080: 693c 843d 8b9f 913e a6ca 2e3e f72b 08bb
00000090: fcae 92bd 7b63 7b3d 1dc9 2fbe 47d9 be3e
000000a0: 0998 69be 73ba 113f 80ea 913b 3c5b 833e
000000b0: 060d 013f 21b2 bf3f 4b45 d8bc 6286 623f
000000c0: eda9 8fbd 2525 2b3f 53d1 aabe a8dc 233f
000000d0: c418 aabe f85f 2f3e 085c f93b d3d9 a83d
000000e0: 807d ceba 4fc6 01be 58b6 43be 7db3 96be
000000f0: c1dd c3be 412a 0a3e 85a1 863d 175d 593e
00000100: c06c da3d 7045 6f3e 0484 b23c cd2a 513e
00000110: 1dbd d9be fe0b 5f3c 7b11 853c 4448 223e
00000120: 29ff 213e 3328 323e b7f4 26be bd8a 1c3e
00000130: a706 76be 3cdb 90be 6ac9 433e 4c1c f43d
00000140: 1fbf a03e 44b8 343e 754d 39bd 643a fa3d
00000150: f133 85be e8b3 54be ab12 7d3f 3387 0dbe
00000160: 1e73 253f 6e66 e43d ef1e a33e 002b 2c3e
00000170: 6202 c93e c035 363e 857d 753e e9a0 d23d
00000180: f9af 1e3e 1562 93bd ca96 fd3e fcf6 71be
00000190: b385 4f3f 2f55 c4be ef77 3d3d 587a 0a3e
000001a0: 7133 5ebd b3ce 0f3d 6f58 f63d c715 b83c
000001b0: 7d6f 2b3e b51d 603d 4ddd 0fbe 2ba1 053e
000001c0: 43a1 90be 2b0f 53bd 1999 23be 2b2b 77be
000001d0: 2bbb f03c afb5 4abf 2548 75be 7f50 4c3e
000001e0: 3ab4 d5be 08fb 133e 1363 e1be ad2e a43d
000001f0: 64eb 04bf 377d b43b 5885 433e ec2f 8ebd
00000200: a55f 573e 1d99 573e 6dfe 513d c8f9 5c3e
00000210: 6938 17be 587f 5b3e 0549 8abe 1faf 3a3e
00000220: ac79 3bbd eddd bf3d 4965 843d c284 1abe
00000230: f587 0e3e cb6c 99be 51b4 193d 0b85 24bf
00000240: 9bef 1abe 7282 983d 66e3 cf3c 4834 d83d
00000250: 24a7 0c3e ffb9 3f3f 6a0d 453e 3cd6 3e3f
00000260: dfe9 4fbe 6cd6 08be 8a69 f2bc 2300 ebbd
00000270: 2a49 4b3e a276 0d3f e6e7 813e b57c 733f
00000280: 2c82 c4be a470 f1be fa7c 79bd 14b3 d1be
00000290: 4469 d93d 9f9b 203e f9cb 343e 742a 1c3f
000002a0: 6435 273e e431 4b3e b142 0abe c082 2fbe
000002b0: 14fb e33b 01f5 d4bd 9fcd 1d3e 8221 8ebe
000002c0: e1ae ac3e 6d17 81be 178e 05bf b85c 0fbe
000002d0: ce01 0fbe 509d 20be 16be 14bd 6d14 613d
000002e0: c326 bdbc 69d6 1c3e 6c53 f8be 1edb a9be
000002f0: 87b6 233d 5331 ccbd f0d9 f43d 5df4 2f3e
00000300: c880 5f3d 9064 b33d 957f 67be 411b 12bf
00000310: cdc3 0e3e 5eb2 20be 6e66 c43d 28a0 6d3e
00000320: 8cef 363d 5c8f 923e 1efe 0ebd 9d49 8dbf
00000330: 7c8b 223e 59f4 00bf dd4f 013e 58ac fa3d
00000340: 363c e93c 3903 7d3e 3009 96bd 147f 583e
00000350: 9f24 1b3f c4bc b53f 7bf1 403e b127 413f
00000360: b92a cc3d e223 273f 7d56 1a3e 4ff6 573f
00000370: 707c 26be 0c57 343e 6d37 883d 2248 a13d
00000380: 9c4b 413d 5f20 3abe bc10 6c3c 0b2e 3abf
00000390: 2a68 29be 7650 dd3d dabb 8c3b a2f4 9b3d
000003a0: 01c4 003e 8417 1bbd bc78 793d 42da 0abe
000003b0: 7da9 aebd fdf9 433c 862a fcbd e64f 98bc
000003c0: ecd3 5dbd 0860 70be 534a 7fbd 733c d1be
000003d0: 35a2 31be dd4c 0abd 1fd7 0fbe aa2a 8cbd
000003e0: 1c4d 5abe 8c78 2bbe f6fa 24be c5c0 99be
000003f0: 869d e7bd a0c0 8e3e 4886 60bf c336 3dbf
-0.05232638 -0.26083654 0.27609786 0.37945753 0.27134624 0.06721622 0.68832415 0.03809124
0.83592314 0.09785427 -0.1609969 0.1658969 -0.06017471 -0.07778578 -0.07028948 -0.17097759
-0.07982378 -0.19951564 -0.024719741 0.090674445 -0.13071127 -0.4760837 0.024614243 -1.3361999
0.18437947 -0.55232364 0.06614475 0.06578269 -0.09909429 -0.30320266 0.006477614 0.051328097
0.06456835 0.28442034 0.17069492 -0.0020778158 -0.07162282 0.06137417 -0.17166562 0.37275144
-0.22811903 0.56925124 0.0044530034 0.25655544 0.504105 1.4976236 -0.026400229 0.884863
-0.07014833 0.66853553 -0.33362827 0.6400857 -0.3322202 0.17126453 0.007609848 0.08244672
-0.0015753955 -0.12673305 -0.19112527 -0.29433814 -0.38255122 0.13492681 0.06573776 0.21226917
0.10665274 0.23366332 0.021791466 0.20426483 -0.42527094 0.013613699 0.016243687 0.1584788
0.15819992 0.17398147 -0.16304289 0.152873 -0.24025975 -0.28292263 0.19119802 0.1191946
0.31395814 0.17648417 -0.045239884 0.122181684 -0.2601619 -0.20771754 0.9885661 -0.13821106
0.6462878 0.111523494 0.31859538 0.16813278 0.3925963 0.17793941 0.23973663 0.102845974
0.15496816 -0.07196442 0.49529105 -0.23629373 0.81063384 -0.3834624 0.046256956 0.13523233
-0.054248277 0.035109233 0.12028586 0.022471322 0.16741748 0.05471583 -0.14049263 0.13049762
-0.28248033 -0.051528137 -0.15976371 -0.24137561 0.029386124 -0.7918348 -0.23953302 0.19952582
-0.41739064 0.1445123 -0.440209 0.08016715 -0.5192168 0.005508091 0.19093835 -0.06942734
0.21032579 0.21054502 0.05126803 0.21579659 -0.14767613 0.21435297 -0.27008834 0.18230866
-0.045770332 0.09368501 0.06464631 -0.15089706 0.13919051 -0.29965815 0.03752548 -0.6426551
-0.15130465 0.074467555 0.025376987 0.10556847 0.13735634 0.7489318 0.19243398 0.74545646
-0.20304058 -0.13363045 -0.02959134 -0.114746355 0.19852129 0.55259144 0.25372237 0.9511216
-0.38380563 -0.4715625 -0.060910203 -0.40956938 0.10615781 0.15684365 0.17655934 0.6100228
0.1632896 0.1984325 -0.13502003 -0.17139721 0.006957421 -0.10398293 0.1541047 -0.2775994
0.33727172 -0.25213185 -0.52169937 -0.14000213 -0.13965532 -0.1568501 -0.036314093 0.05495112
-0.023089772 0.15316166 -0.48501146 -0.33174986 0.039968994 -0.09970345 0.11955631 0.17183061
0.054566175 0.08759415 -0.22607262 -0.57072836 0.1394188 -0.15693042 0.095898494 0.23205626
0.044662043 0.28625 -0.034910314 -1.103809 0.15873522 -0.50372845 0.12628122 0.12239903
0.028471094 0.2470826 -0.07325971 0.21142226 0.60602754 1.4198232 0.18842117 0.7545119
0.09969086 0.6528913 0.15072055 0.8436021 -0.16258407 0.17611331 0.06651197 0.07875086
0.047191247 -0.18176411 0.014408287 -0.72726506 -0.16543642 0.10806362 0.0042948546 0.076150194
0.1257477 -0.037864223 0.060906157 -0.13559821 -0.08528421 0.011961457 -0.12312798 -0.018592786
-0.054157183 -0.23474133 -0.06232674 -0.40866432 -0.17347033 -0.03376471 -0.14046906 -0.06844075
-0.21318477 -0.16745204 -0.16111359 -0.30029884 -0.11309342 0.27881336 -0.87704897 -0.73911685

sequential/dense_1/MatMul f4 [10, 20]
00000000: 9d6d c53f e294 c73e 2221 7d3e 3641 e93e
00000010: d5ed 7b3e c53b b43e 6c31 3ebe e436 dbbe
00000020: 9e3a 333f 5745 a73e 8d2b 0140 3271 b73e
00000030: f2c7 ce3c 9d25 783f 2327 ffbe 2fac 173f
00000040: e04b 3f3d 3d92 a93d ab2c 213e 5641 5d3f
00000050: be01 6ebe a0e4 563c f98b 3eba 5584 4fbf
00000060: d6db 9ebc efb7 3b3f c878 59bf 6c64 b4bd
00000070: 2f39 54bf 61bc 623e 0109 e43f 780d 44bd
00000080: 6b2d 4bbf 4efc fd3e d187 f43e fe37 0b3f
00000090: 949d 8fbc 0486 943d 5a1e 4dbe 5606 1b3f
000000a0: aece f43e b741 60be f366 1cbe 2a55 e03e
000000b0: 470a 673f a9f1 aabf 349b 503f c757 453c
000000c0: 389b d9bd 118d 43bf 1cbd b03e 2ee6 563f
000000d0: c7c3 263f 0fdd 23bd ffce f8be 0202 4abd
000000e0: f7ca fa3e 6aff 1b3f e636 8fbf 1a29 10bd
000000f0: c716 bfbe 69bc 0a3d 9c8e 31bd 08b8 223f
00000100: 9045 5bbe 1a74 31bf 70ec 103e 4ff5 afbb
00000110: c107 de3e c968 1ebf 6a2a e93e deb4 ba3c
00000120: e2f1 f53e f266 67be cb52 263f c511 42bf
00000130: ee74 053e 55c3 b33d d5ab 6b3d 5222 c2be
00000140: 75e9 993d 1f6c 013f 5c1e 8e3f 75a2 86be
00000150: ec35 9b3e b4de 153e 68a4 d63f 5600 083f
00000160: b6ff 363f 8b3e a63d 0cfb 863c 8c9f 523e
00000170: 2f9b cd3f 68d6 b23f 3414 9f3f b934 693f
00000180: 0e7b b03f 47c1 d33f 41e3 803e 9e44 a83f
00000190: bf87 68bd 281c e5bd 419d 783e 1922 03be
000001a0: aad9 b93c 9e4c b9be a786 0d3f ccca 653f
000001b0: e510 8a3c b1c5 e1be 4fd9 8dbd a968 c0bd
000001c0: c273 2f3e fd64 303e 5844 2b3d 5d5c 51bf
000001d0: bd29 b8bf ae96 053f de59 efbe 9d33 983e
000001e0: a9a5 46be 2341 e03d 7b8a 463d 8cfc 1b3f
000001f0: 820a 703f ad6c dfbe 7ceb d7be 7901 e6bd
00000200: bf27 ea3e 9936 b73e ecf7 a9be bdc8 2c3f
00000210: ce1e 0dbe f69a 183f f132 7c3e 1e43 a63e
00000220: db61 84bd 8250 bdbc 64a8 e9be eceb e73e
00000230: 97ee e63e f125 1b3e f8d5 893d 7e97 993e
00000240: f054 2e3f 2a88 0b3f a634 1e3f 0a5b c73e
00000250: 6f36 91bd 8046 9f3f a68a 1a3c a88b 0e3f
00000260: 5c39 023e 32c6 003f 531a 413d fd43 253f
00000270: a4cc 053e a871 bcbb 057b 443f 1e76 e83e
00000280: 379a 90bd c44c 6e3f 8f73 d53e b371 533f
00000290: afa8 0c3e 6288 853f 8457 abbe 1c1a 383f
000002a0: 3dae 8c3f 2ad7 ab3d 6c1f 30bd cdf8 ccbd
000002b0: 6ab8 00bf 0a16 5e3e e16b d43e 5494 043d
000002c0: f5df 923f f23f fc3e c11c 923f 1617 2abe
000002d0: 5701 4a3d ffc2 183f c2cc 603f 2e63 3a3f
000002e0: 179c 08bf c3f3 e43e 71cf 4d3e 9f25 273f
000002f0: d0af aa3e 5fbe 3fbe 0147 6ebb 01d3 cf3e
00000300: c03c 9e3e af23 a6bb 7c85 c23e 06f5 82bb
00000310: 0e5d 0abe 5870 1a3f 0e5d f73e 1509 4c3e
1.5424076 0.38980776 0.2471967 0.45557564 0.24602444 0.3520185 -0.1857354 -0.42815316
0.7001132 0.3267009 2.0182831 0.3582855 0.025241826 0.96932393 -0.49834546 0.59247106
0.04670322 0.08279846 0.15739696 0.8642782 -0.23242852 0.013116032 -0.00072687824 -0.810613
-0.019391935 0.73327535 -0.8494992 -0.088082165 -0.82899755 0.22142173 1.7815248 -0.047864407
-0.7936618 0.49606556 0.4775987 0.5438231 -0.017531194 0.07252124 -0.2003111 0.6055654
0.47813934 -0.21900068 -0.15273647 0.43814975 0.90250057 -1.3354999 0.8148682 0.0120448535
-0.10625309 -0.76387125 0.3451928 0.83944976 0.6514248 -0.04000574 -0.48595425 -0.04931832
0.48982975 0.60936606 -1.1188629 -0.035195448 -0.37322065 0.03387109 -0.043348894 0.6356206
-0.21413255 -0.6931778 0.14152694 -0.0053698192 0.4336529 -0.6187864 0.45540172 0.022791322
0.48036104 -0.22597864 0.6497008 -0.75808364 0.13032886 0.08777491 0.05753692 -0.3791681
0.075152315 0.50555605 1.1103015 -0.2629582 0.30314577 0.14635736 1.6768923 0.5312551
0.71483934 0.08117398 0.01647713 0.20568675 1.6062983 1.3971682 1.242804 0.91096073
1.3787553 1.6543359 0.2517338 1.314594 -0.056770083 -0.11187011 0.24278738 -0.12805976
0.022686798 -0.36191267 0.5528359 0.8976257 0.016853759 -0.4409614 -0.06926214 -0.09394962
0.17134002 0.17226024 0.041813225 -0.8178156 -1.4387738 0.52183044 -0.4674825 0.29726878
-0.19399132 0.10949924 0.04847191 0.6093223 0.93766034 -0.436376 -0.42171848 -0.1123075
0.4573345 0.35783842 -0.33196962 0.674938 -0.13781282 0.5961145 0.24628808 0.3247308
-0.06463977 -0.023109678 -0.45636284 0.45297182 0.45103905 0.15151192 0.067302644 0.29998392
0.68098354 0.54504645 0.61799085 0.38936645 -0.070904605 1.244339 0.00943247 0.5568185
0.12717193 0.5030242 0.047144245 0.64556867 0.13066345 -0.0057508536 0.7675021 0.45402616
-0.07060664 0.93085885 0.41689727 0.82595366 0.13736223 1.0432246 -0.33465207 0.7191484
1.0990673 0.08390649 -0.042998716 -0.100083925 -0.50281394 0.21688095 0.41488555 0.03236802
1.1474596 0.49267536 1.1415025 -0.16610369 0.049317684 0.5967254 0.87812436 0.72807586
-0.53363174 0.44717225 0.20098664 0.6529178 0.3333726 -0.18724965 -0.003635824 0.4059067
0.30905724 -0.005070172 0.37992465 -0.003996494 -0.1351206 0.6032767 0.48313183 0.1992534

sequential/dense_2/MatMul f4 [7, 10]
00000000: a7d0 083f 1227 183f d310 03bf 44ea 993f
00000010: e80d 033f b1df cbbe 8deb 37bf 5c78 59be
00000020: 1d57 f8be 4db9 033f e73c 97bd d878 87bf
00000030: 7deb fcbe d7e6 c0be 22b2 1e3f 5952 143f
00000040: 5985 4cbe 3286 9f3f c971 81bd 10a9 d73b
00000050: d56c 643d 9644 b6bf f6b4 90be 294a 64bf
00000060: f38f 053f 0812 04bf da2b 5f3f 64fa 22bf
00000070: 9a00 bbbe 1b8b 023f 2e15 a33e 1438 893f
00000080: e891 c1bf 8992 e43e a1e4 593d 83f1 3c3f
00000090: e516 113f 814d c63d 8ee6 00c0 06be a6bf
000000a0: 5dc4 cc3e 1510 2f3f 4e30 9e3f 6c60 6e3f
000000b0: 0180 1bc0 553a 31c0 c6ca 55be 6e18 37bf
000000c0: fdc7 eabf 443e 34bf 39aa 1ac0 5112 0cbf
000000d0: 025e 2d3f c7fe b43d 3167 173f 175d 5c3f
000000e0: 8f4c 9abf c8ad 97bf 97a4 59be 9e12 28bf
000000f0: bd13 2ebf 079a 93be 2d0b 90bf a948 fdbd
00000100: e6be 86be d191 e5bd b0ed 2cbf 4353 4c3e
00000110: e6cf cf3e 817c 643f
0.5344338 0.59434617 -0.51197547 1.2024617 0.51193094 -0.398191 -0.71843797 -0.2123732
-0.48503962 0.5145462 -0.07384663 -1.0583754 -0.49398413 -0.37676117 0.6199056 0.5793815
-0.19972743 1.2462828 -0.06320531 0.006581433 0.055767853 -1.4239681 -0.28263062 -0.8917566
0.52172774 -0.51590014 0.8717629 -0.63663316 -0.36523896 0.5099351 0.31852096 1.0720239
-1.5122652 0.44643047 0.053196553 0.7380602 0.5667556 0.096827514 -2.014072 -1.302674
0.39993563 0.68383914 1.2358491 0.9311588 -2.4296877 -2.7691853 -0.20878133 -0.7152165
-1.8342282 -0.7040751 -2.4166396 -0.5471545 0.6772157 0.088376574 0.5914183 0.86079544
-1.2054614 -1.1849909 -0.21254192 -0.6565341 -0.6799887 -0.2882845 -1.125341 -0.123673744
-0.2631752 -0.11209453 -0.6755018 0.19953637 0.405883 0.8925248
