model/keypoint_classifier/keypoint_classifier.tflite (tflite, 6448 bytes, 6 tensors)

sequential/dense/BiasAdd/ReadVariableOp/resource f4 [20]
-0.3654547 -0.30310783 -0.04804662 -0.56089675 -0.56992006 -0.7748566 -0.79421043 -0.43808174
-0.33566082 0.05306561 -0.0811006 -0.4734271 -0.81392646 -0.61156607 -0.01219538 -0.48088568
-0.34448218 -0.26788405 -0.53228635 -0.45093787
00000000: e11c bbbe f330 9bbe 88cc 44bd ee96 0fbf
00000010: 48e6 11bf 015d 46bf 6051 4bbf 404c e0be
00000020: bcdb abbe 535b 593d 1218 a6bd 0965 f2be
00000030: 7c5d 50bf 988f 1cbf 22cf 47bc a636 f6be
00000040: f85f b0be 1928 89be eb43 08bf 54e1 e6be

sequential/dense_1/BiasAdd/ReadVariableOp/resource f4 [10]
0.15183327 -0.35302183 -0.5212475 0.029929405 -0.38267487 0.7602415 0.34469718 0.71427065
0.28417924 0.19722605
00000000: 2e7a 1b3e 47bf b4be 7a70 05bf 832e f53c
00000010: f6ed c3be 309f 423f 267c b03e 71da 363f
00000020: f17f 913e a0f5 493e

sequential/dense_2/BiasAdd/ReadVariableOp/resource f4 [6]
-0.17308378 -0.6958358 0.6692861 0.105813034 0.5167141 -0.4785505
00000000: e03c 31be 4c22 32bf 5556 2b3f 81b4 d83d
00000010: 6047 043f 9204 f5be

sequential/dense/MatMul f4 [20, 42]
0.0049396157 0.16429138 -0.018369576 -0.004456037 -0.09873729 0.17300382 -0.2020241 0.29257396
-0.2730291 0.22547106 0.18482096 0.06043035 0.02715551 0.08923246 0.0026405775 0.03615009
-0.03267537 0.021230869 0.119222045 0.10271072 -0.0074322214 0.12342017 0.057349365 0.029527305
0.1762968 -0.33852044 0.08741848 0.12978499 -0.06309212 0.13639738 0.023861378 -0.45350385
0.42936072 -0.6445283 -0.06449225 0.20479232 -0.07926236 0.09960095 -0.089503504 -0.25950223
0.4269121 -0.7031483 0.2342934 -0.24988118 0.16093898 -0.39975652 0.2165485 0.1971004
0.33082646 -0.0073249666 0.20505697 0.15786736 0.6800304 0.083189845 0.58066875 0.013858363
-0.037540216 0.015352369 -0.18525577 -0.0094710095 0.75387347 -0.0032588665 0.555845 0.12984143
-0.17229453 0.16454399 -0.6424246 0.11483246 0.911454 -0.08446812 0.6035402 0.098377906
-0.37888867 -0.122057006 -0.636719 -0.1413043 0.5757757 -0.264352 0.7120384 0.025158385
0.074056916 -0.035103824 0.033888306 -0.10183336 0.2578255 -0.19830835 0.05032391 0.5825616
-0.03890717 0.2970243 -0.008168056 0.34317425 0.03017393 0.33225694 -0.10576005 0.10021758
0.00035860788 0.051741753 0.08459336 -0.08326044 0.20834157 -1.5722598 -0.09746594 0.1261963
-0.060650885 0.15415893 -0.009796335 0.11930477 0.0006805592 -0.031727333 -0.0022554887 0.08988862
-0.124764934 0.123736024 -0.15812479 0.06691168 -0.027126478 -0.020968756 0.20401938 0.16642196
-0.019095551 0.14306688 -0.08906511 0.06378301 0.0080493465 -0.0033256789 0.29301 -0.16294427
0.23986085 -0.080737635 0.50422245 -0.59290034 0.7924598 -1.0295022 0.92165256 -0.36246142
-0.09026414 -0.19158739 0.041132007 -0.21588756 -0.14293753 0.018855318 -0.4338287 0.04199058
0.33981124 -0.08465089 0.2744459 -0.43372172 0.12952483 -0.3486368 0.11444304 -0.13190763
0.51813734 -0.12676 0.17919794 -0.3083866 0.2114826 0.13106807 -0.034347817 0.31077895
0.3120165 0.015721604 0.0014149345 -0.08227022 0.029289726 0.25190678 -0.18073304 0.36459514
-0.2939743 -0.24155241 -0.64573514 0.672328 -0.27240133 0.097230315 0.052402362 0.07318091
0.6121657 -0.25103074 -0.25540245 -0.18276912 -0.20064725 -0.092898875 0.03130658 -0.028867247
0.030288128 0.015079115 0.2030254 -0.21619259 0.012680017 -0.10809262 -0.15984812 0.028322464
-0.2080716 -0.057202566 0.5231239 -0.46370065 0.20934632 -0.0022805883 -0.12111803 0.25013128
-0.23647915 0.21609557 0.67290443 -0.8315809 0.3919964 -0.28036398 -0.037317052 0.21587554
-0.15550919 0.2044532 0.23485374 -0.14569889 -0.012787306 -0.31804165 0.014629248 -0.15498118
0.13725047 -0.30166146 -0.070618816 -0.046632744 -0.09310089 -0.41265225 0.16751811 -0.14241183
0.039680075 0.025124887 0.061920367 0.072721705 0.0013992721 -0.42420045 -0.024344347 -0.020564048
-0.037173524 0.15778849 -0.04787601 0.097390495 0.44459334 -0.47248074 -0.07633699 0.06580892
-0.09700997 0.16813684 -0.12773632 0.12732945 0.42525935 -0.6983022 0.08506193 -0.15830047
-0.03151928 0.1311851 -0.021031756 0.113254055 0.15412155 -0.028010637 -0.030115612 -0.637575
00000000: 80dc a13b 003c 283e cb7b 96bc f303 92bb
00000010: c736 cabd ea27 313e 68df 4ebe 41cc 953e
00000020: 78ca 8bbe e3e1 663e b541 3d3e d185 773d
00000030: 3b75 de3c 82bf b63d 8a0d 2d3b 1e12 143d
00000040: 9cd6 05bd 5cec ad3c b02a f43d ff59 d23d
00000050: fe89 f3bb b7c3 fc3d 2be7 6a3d 3fe3 f13c
00000060: 2687 343e 8d52 adbe 7608 b33d 5be6 043e
00000070: 7136 81bd c1ab 0b3e f078 c33c a831 e8be
00000080: 2bd5 db3e cfff 24bf 8314 84bd 14b5 513e
00000090: 4e54 a2bd 95fb cb3d 9d4d b7bd 7add 84be
000000a0: 3994 da3e 8701 34bf 9cea 6f3e dae0 7fbe
000000b0: 30cd 243e e3ac ccbe e4be 5d3e b0d4 493e
000000c0: 1662 a93e 4606 f0bb 74fa 513e fba7 213e
000000d0: 7916 2e3f 705f aa3d b5a6 143f 300e 633c
000000e0: c5c3 19bd 8188 7b3c b0b3 3dbe 4b2c 1bbc
000000f0: dafd 403f b592 55bb dc4b 0e3f 27f5 043e
00000100: fa6d 30be 387e 283e f075 24bf 482d eb3d
00000110: 0d55 693f 9ffd acbd 9c81 1a3f 5b7a c93d
00000120: b2fd c1be 06f9 f9bd 0400 23bf 13b2 10be
00000130: 0966 133f 2559 87be 2648 363f f518 ce3c
00000140: 27ab 973d 07c9 0fbd 77ce 0a3d 028e d0bd
00000150: b401 843e 5811 4bbe 7220 4e3d c222 153f
00000160: 205d 1fbd 9213 983e 4fd3 05bc 89b4 af3e
00000170: 512f f73c 951d aa3e ba98 d8bd e03e cd3d
00000180: 8903 bc39 29ef 533d 493f ad3d 7384 aabd
00000190: 7e57 553e cf3f c9bf 399c c7bd 9a39 013e
000001a0: 106d 78bd d7db 1d3e cf80 20bc 0f56 f43d
000001b0: 8e67 323a 85f4 01bd d2d0 13bb 8617 b83d
000001c0: c284 ffbd 5069 fd3d 77eb 21be fe08 893d
000001d0: 5938 debc abc6 abbc 75ea 503e 856a 2a3e
000001e0: 466e 9cbc 2080 123e c567 b6bd aba0 823d
000001f0: 68e1 033c a2f3 59bb 6805 963e ddda 26be
00000200: 159e 753e c659 a5bd b914 013f 51c8 17bf
00000210: a5de 4a3f bac6 83bf 6cf1 6b3f 8b94 b9be
00000220: 68dc b8bd 7c2f 44be 097a 283d a111 5dbe
00000230: 375e 12be 7876 9a3c cc1e debe 50fe 2b3d
00000240: bdfb ad3e 725d adbd 2c84 8c3e c610 debe
00000250: 28a2 043e 8680 b2be 1d61 ea3d cb12 07be
00000260: a6a4 043f 60cd 01be aa7f 373e d9e4 9dbe
00000270: e58e 583e b536 063e 4cb0 0cbd 6b1e 9f3e
00000280: a0c0 9f3e 98ca 803c 5375 b93a 4a7d a8bd
00000290: 02f1 ef3c edf9 803e 1512 39be 37ac ba3e
000002a0: cd83 96be 8459 77be e64e 25bf b01d 2c3f
000002b0: 3078 8bbe b020 c73d dca3 563d dfdf 953d
000002c0: e4b6 1c3f 1a87 80be 1cc4 82be d427 3bbe
000002d0: 7976 4dbe c441 bebd 543b 003d 017b ecbc
000002e0: cf1e f83c 640e 773c e4e5 4f3e 9761 5dbe
000002f0: d9bf 4f3c aa5f ddbd 3aaf 23be 8304 e83c
00000300: b910 55be 3d4d 6abd 73eb 053f 2c6a edbe
00000310: e25e 563e ec75 15bb bb0c f8bd 3511 803e
00000320: 9727 72be 2848 5d3e 7743 2c3f 7ce2 54bf
00000330: c1b3 c83e de8b 8fbe c4d9 18bd 7a0e 5d3e
00000340: cd3d 1fbe 2e5c 513e 807d 703e 1732 15be
00000350: d981 51bc 5bd6 a2be 83af 6f3c 63b3 1ebe
00000360: 638b 0c3e 5f73 9abe 99a0 90bd fa01 3fbd
00000370: aeab bebd 2847 d3be de89 2b3e 68d4 11be
00000380: 9387 223d b5d2 cd3c 36a0 7d3d 1eef 943d
00000390: c867 b73a cd30 d9be cc6d c7bc ef75 a8bc
000003a0: 4443 18bd 4e93 213e a319 44bd ab74 c73d
000003b0: bda1 e33e ffe8 f1be 9156 9cbd d4c6 863d
000003c0: 2aad c6bd 102c 2c3e 4fcd 02be a762 023e
000003d0: 98bb d93e efc3 32bf f334 ae3d 8519 22be
000003e0: 5c1a 01bd 6355 063e ca4a acbc bef1 e73d
000003f0: 0ad2 1d3e 9076 e5bc 04b5 f6bc 1d38 23bf

sequential/dense_1/MatMul f4 [10, 20]
0.43521982 0.07241174 0.07524626 -0.15755178 0.060040493 -0.042436957 0.34596494 0.900563
0.67243445 -0.7059888 -0.07028986 0.7103063 0.095920116 -0.0170797 -0.3243207 0.3520128
1.1907893 0.03316787 -0.6398559 0.044247642 0.96132207 0.30099997 -0.043489814 0.28548506
0.0029233838 -0.3117961 0.24461244 0.6119902 0.57955235 0.68403596 0.62478757 1.2650248
0.6963406 0.6714736 0.5525104 0.090461954 0.3981789 0.25209507 1.1538726 -0.2538121
0.052491546 0.37436175 -0.011922631 0.2293281 0.18724592 0.23291622 0.84564024 0.237477
0.17072059 0.595941 -0.17470099 0.24014719 0.74505466 -0.13194484 0.29157528 0.70324385
0.15483707 -0.12288841 0.34890983 0.61313355 -0.2789896 -0.62171066 -0.1996371 0.70804834
0.0119192265 0.22125383 -0.32103726 -0.050919976 -0.18478142 -0.11926583 -0.17266777 -0.19427483
0.41161162 -0.57124907 -0.11219458 -0.18691224 0.26590005 -0.121310666 -0.05846966 -0.0070565864
-0.21836703 0.43712127 -0.11590457 0.12300659 0.33499834 0.6965959 0.24814636 -0.3664797
-0.12753034 0.0656798 0.5441251 -0.020422459 0.38795173 1.0145087 -0.015018549 -0.07002887
-0.06098315 0.05657744 -0.19488636 -0.06330984 -0.88452524 0.30103227 0.6021673 0.13404472
0.87078726 0.6243652 0.25527287 -0.72252655 -0.52045184 0.2628743 0.29363135 -0.47006685
0.46740955 0.7539735 0.23288853 0.55129486 -0.9419966 0.76708424 -0.29800913 0.3321971
0.053007524 0.01368974 0.6810521 0.21456109 -0.46311778 -0.5399157 -0.40922233 0.072347
1.2082088 0.6124405 0.5775456 0.1454959 0.008913183 -0.059659872 0.879637 0.5565101
0.035101913 0.7729891 0.04065962 0.5587012 -0.23665066 -0.71192974 0.8551477 0.40193632
0.4564431 0.17031895 -0.58542037 1.1304798 -0.16718476 -0.6953644 -0.2664312 -0.85287493
-0.7082818 -0.29875246 -1.6220696 -0.07922047 0.86826015 -0.42629832 -0.8379228 -0.8577204
-0.0033011243 1.2376232 1.358193 0.91702145 -0.039628502 0.4606248 -0.3803325 0.08101225
0.7166923 0.97582835 1.0079769 0.021089533 -0.059937928 0.3282619 0.17743853 0.83190215
0.16236447 1.0587138 -0.0048621325 0.43083766 0.0374761 -0.52527845 -0.056127694 -0.42511678
0.121028684 0.20186359 0.84766895 -0.030948991 0.1527898 0.01624121 0.18019493 0.2768726
-1.3656268 0.3038766 0.11101096 0.4919027 0.19526324 0.26036352 0.22306398 0.36382043
00000000: 22d5 de3e 9b4c 943d b61a 9a3d 4155 21be
00000010: 05ed 753d 60d2 2dbd 5122 b13e 4c8b 663f
00000020: aa24 2c3f afbb 34bf 21f4 8fbd a2d6 353f
00000030: c471 c43d baea 8bbc 5d0d a6be 063b b43e
00000040: c96b 983f 08db 073d 99cd 23bf 043d 353d
00000050: 3419 763f ab1c 9a3e 6022 32bd 192b 923e
00000060: 3e96 3f3b bda3 9fbe af7b 7a3e 64ab 1c3f
00000070: 8b5d 143f fb1c 2f3f 14f2 1f3f 55ec a13f
00000080: 6143 323f b2e5 2b3f 5271 0d3f 1e44 b93d
00000090: 1bde cb3e 9b12 813e 19b2 933f a9f3 81be
000000a0: 6001 573d 58ac bf3e 2457 43bc fcd4 6a3e
000000b0: 65bd 3f3e 9781 6e3e e17b 583f 2c2d 733e
000000c0: 61d1 2e3e 978f 183f d1e4 32be 25e9 753e
000000d0: e7bb 3e3f 8c1c 07be 5b49 953e ca07 343f
000000e0: 9c8d 1e3e ebac fbbd 4fa4 b23e 52f6 1c3f
000000f0: bad7 8ebe 6e28 1fbf ab6d 4cbe a842 353f
00000100: dc48 433c 5d90 623e ff5e a4be 7791 50bd
00000110: 5737 3dbe a541 f4bd d2cf 30be fbef 46be
00000120: c2be d23e 613d 12bf 46c6 e5bd ec65 3fbe
00000130: 0d24 883e ba71 f8bd e27d 6fbd f03a e7bb
00000140: 9b9b 5fbe 5cce df3e 605f edbd e1ea fb3d
00000150: e784 ab3e 1c54 323f 141a 7e3e 3aa3 bbbe
00000160: 5097 02be 2283 863d c84b 0b3f 004d a7bc
00000170: 9ca1 c63e 6cdb 813f 5c10 76bc 4c6b 8fbd
00000180: 78c9 79bd bfbd 673d 4a90 47be 97a8 81bd
00000190: 3f70 62bf e720 9a3e a327 1a3f 0543 093e
000001a0: eaeb 5e3f 66d6 1f3f 20b3 823e 80f7 38bf
000001b0: 553c 05bf 7697 863e d956 963e 9aac f0be
000001c0: 4e50 ef3e 6804 413f 557a 6e3e a921 0d3f
000001d0: b026 71bf a25f 443f a794 98be bd15 aa3e
000001e0: 6b1e 593d ee4a 603c 6e59 2e3f e7b5 5b3e
000001f0: c61d edbe ea37 0abf 9785 d1be aa2a 943d
00000200: 96a6 9a3f e7c8 1c3f 07da 133f e1fc 143e
00000210: 9908 123c e95d 74bd e42f 613f 7277 0e3f
00000220: 06c7 0f3d 9de2 453f b48a 263d 0b07 0f3f
00000230: 8d54 72be 0741 36bf f6ea 5a3f 99ca cd3e
00000240: e9b2 e93e 1768 2e3e 1cde 15bf 90b3 903f
00000250: 7b32 2bbe 6703 32bf ac69 88be 0356 5abf
00000260: f551 35bf 15f6 98be fa9f cfbf 573e a2bd
00000270: 4c46 5e3f c643 dabe 1c82 56bf 9093 5bbf
00000280: ad57 58bb 706a 9e3f 45d9 ad3f ebc1 6a3f
00000290: 7f51 22bd 04d7 eb3e f1ba c2be c0e9 a53d
000002a0: 2679 373f e3cf 793f 6305 813f f5c3 ac3c
000002b0: 7981 75bd f211 a83e 72b2 353e 8af7 543f
000002c0: df42 263e ef83 873f 8652 9fbb c196 dc3e
000002d0: 8a80 193d a678 06bf 27e6 65bd e8a8 d9be
000002e0: e3dd f73d 54b5 4e3e d500 593f bd88 fdbc
000002f0: ee74 1c3e 490c 853c 0585 383e 3fc2 8d3e
00000300: dccc aebf b795 9b3e b759 e33d acda fb3e
00000310: 16f3 473e 5e4e 853e e26a 643e ac46 ba3e

sequential/dense_2/MatMul f4 [6, 10]
0.39784184 0.70869267 -0.005761331 -0.40991023 -0.6757982 -0.24778569 0.79302794 -0.3689453
0.52032584 -0.1557059 0.09520276 0.33341864 0.6215167 0.66723907 1.139217 0.28882936
-0.084732845 -0.693314 0.4349632 0.9155307 -0.9094708 -0.4846677 -0.5193595 -0.39357647
0.4979409 1.1390954 0.41826683 -0.6409102 0.5011655 -0.60880786 0.5644441 0.8565758
0.42657685 -0.26639336 0.31988895 -0.47116548 -1.2065396 -0.12161183 -1.0338312 0.30253717
0.39399296 -1.3635328 -2.000659 0.62490547 -0.84395486 0.12788564 -0.64170265 1.3915403
0.16496623 -1.1737094 -0.7481471 -1.0466458 -0.51364815 -0.6708621 -0.11531689 -1.0689597
-0.98755133 -1.1866868 -1.0208585 -0.25168088
00000000: edb1 cb3e e26c 353f 8cc9 bcbb c1df d1be
00000010: 1c01 2dbf 88bb 7dbe e103 4b3f 66e6 bcbe
00000020: 1334 053f 5e71 1fbe aaf9 c23d d9b5 aa3e
00000030: b81b 1f3f 2ed0 2a3f ddd1 913f 71e1 933e
00000040: 6a88 adbd 077d 31bf 7fb3 de3e 3860 6a3f
00000050: 14d3 68bf 5d26 f8be bff4 04bf db82 c9be
00000060: 1cf2 fe3e e1cd 913f 1227 d63e b112 24bf
00000070: 624c 003f d5da 1bbf 697f 103f 8d48 5b3f
00000080: 4868 da3e b664 88be 7cc8 a33e 9a3c f1be
00000090: e46f 9abf a00f f9bd 9554 84bf 27e6 9a3e
000000a0: 72b9 c93e 3e88 aebf cc0a 00c0 cef9 1f3f
000000b0: 6d0d 58bf 74f4 023e a046 24bf fe1d b23f
000000c0: e8ec 283e 1c3c 96bf 9186 3fbf 7df8 85bf
000000d0: 727e 03bf 9ebd 2bbf 432b ecbd acd3 88bf
000000e0: 2ad0 7cbf 5ae5 97bf 7eab 82bf 51dc 80be
