model/keypoint_classifier/keypoint_classifier.tflite (tflite, 6448 bytes, 6 tensors)

sequential_1/dense_3/BiasAdd/ReadVariableOp/resource f4 [20]
0	0xbec1851a	-0.3779686
1	0xbf534ede	-0.82542217
2	0xbf64f295	-0.8943265
3	0xbeace7cf	-0.33770606
4	0xbf145f94	-0.5795834
5	0xbf57d3c7	-0.8430752
6	0xbf1bfd2f	-0.609332
7	0xbf1af4e9	-0.60529953
8	0xbf51b3e6	-0.8191513
9	0xbf68a1d0	-0.90871906
10	0xbf34cee9	-0.7062822
11	0xbd1c5822	-0.038169987
12	0xbf495740	-0.7864876
13	0xbe3dc2e2	-0.18531373
14	0xbef99768	-0.48748326
15	0xbf2fcebd	-0.6867483
16	0xbd9b3edb	-0.07580348
17	0xbf3532ee	-0.7078084
18	0xbdb05bc1	-0.08611251
19	0xbe8aa5f7	-0.27079746

sequential_1/dense_4/BiasAdd/ReadVariableOp/resource f4 [10]
0	0x3ee643c5	0.4497358
1	0xbd990e4a	-0.074734285
2	0xbc6d218c	-0.01447333
3	0x3e9e911d	0.30970088
4	0x3f356aff	0.7086639
5	0x3f0ea621	0.5572224
6	0x3e8a1b4d	0.26973954
7	0x3e8c9eb3	0.27464828
8	0x3f7395a5	0.95150214
9	0xbefde529	-0.49588898

sequential_1/dense_5/BiasAdd/ReadVariableOp/resource f4 [5]
0	0xbeb91dae	-0.36155456
1	0xbe849b47	-0.25899717
2	0x3f3812ff	0.71903986
3	0xbe41e935	-0.18936618
4	0x3e0036fb	0.12520973

sequential_1/dense_3/MatMul f4 [20, 42]
0	0xbe927915	-0.28608003
1	0xbdcca1a2	-0.099917665
2	0x3ec70647	0.38871977
3	0x3f0550c1	0.52076346
4	0x3e97ebd4	0.2967211
5	0xbd4d9cca	-0.050198354
6	0x3efc7f30	0.49315786
7	0xbeace7ff	-0.3377075
8	0x3ef31257	0.4747493
9	0xbed551f6	-0.41664094
10	0xbde36b54	-0.111044556
11	0x3ce551a5	0.027993033
12	0xbd5575a9	-0.052114163
13	0x3cc1c698	0.023654267
14	0x3be3fc79	0.0069575873
15	0x3cf7f8f6	0.030270081
16	0x3c12da28	0.008963145
17	0x3c875558	0.016520187
18	0xbde87e76	-0.113522455
19	0xbd3887e3	-0.045051467
20	0xbc8edab5	-0.017438272
21	0xbde4931d	-0.11160872
22	0xbe32f6e1	-0.1747699
23	0xbd2e970f	-0.04262453
24	0xbee1d12c	-0.44104898
25	0x3e2f2592	0.17104176
26	0x3df6d43d	0.120522
27	0xbdd1bb5b	-0.10240813
28	0x3c90b81b	0.017665913
29	0xbe1123d4	-0.14173824
30	0xbeb32985	-0.34992614
31	0x3e4acf5a	0.19805661
32	0xbf35dc11	-0.7103892
33	0x3f2e8503	0.6817171
34	0x3ec78b03	0.38973245
35	0xbe30f6fb	-0.17281716
36	0x3dff70e1	0.12472702
37	0xbc3c3b77	-0.011488787
38	0xbe683348	-0.22675812
39	0x3e438aca	0.19095913
40	0xbf361888	-0.7113118
41	0x3f337363	0.7009794
42	0xbdfaddd2	-0.1224934
43	0xbe1a2298	-0.15052259
44	0x3f84b36f	1.0367259
45	0x3e034e8b	0.1282293
46	0x3f08c7de	0.53429973
47	0x3e688e82	0.22710612
48	0x3ebb79ae	0.36616272
49	0x3ba62fc7	0.0050716135
50	0x3e7e6b47	0.2484561
51	0xbe9a33a9	-0.3011754
52	0x3e363e99	0.17797317
53	0x3f14eec5	0.58176833
54	0x3d8da2c9	0.069158144
55	0x3e6b4cfa	0.22978583
56	0xbdb1d6ac	-0.086835235
57	0x3d90e5c9	0.07075078
58	0xbe35ee97	-0.17766796
59	0x3dddb892	0.108262196
60	0x3e124f9a	0.14288178
61	0x3ecc0a73	0.39851722
62	0x3dd7c0b0	0.10534799
63	0x3aae1022	0.0013279954
64	0xbdc08938	-0.094011724
65	0xbd982334	-0.074285895
66	0xbdc79e0e	-0.097469434
67	0xbdf6689b	-0.12031671
68	0x3e758158	0.23975122
69	0x3d8f365c	0.0699279
70	0x3e052f7a	0.13006392
71	0xbd066030	-0.032806575
72	0xbdb997eb	-0.09062179
73	0xbda662f9	-0.08124346
74	0xbe0f752d	-0.14009543
75	0x3b86f468	0.004118491
76	0x3eb24289	0.34816387
77	0xbdd22a15	-0.10261933
78	0x3e848e4c	0.25889814
79	0xbd3e7c0e	-0.046505027
80	0x3e108122	0.1411176
81	0xbdbe0b85	-0.09279541
82	0x3c58cc58	0.013232313
83	0xbd23b5b1	-0.039968196
84	0xbe5b1a82	-0.2139683
85	0x3ca000f0	0.019531697
86	0xbe52bb18	-0.20579183
87	0xbde41f43	-0.11138775
88	0xbea316c8	-0.31853318
89	0xbe5ca779	-0.21548261
90	0xbe2df6b5	-0.16988643
91	0xbe560f02	-0.20904163
92	0xbe9c46ec	-0.3052286
93	0xbe1c7469	-0.15278782
94	0xbf07b727	-0.53013843
95	0xbe4b026d	-0.19825144
96	0xbe54414b	-0.20728032
97	0xbe0593e0	-0.13044691
98	0x3d516cf7	0.051129308
99	0xbc84fc66	-0.016233634
100	0x3dd47e26	0.103756234
101	0xbca66a39	-0.020314323
102	0xbed2116b	-0.41028914
103	0xbd971714	-0.07377449
104	0xbe44795d	-0.19186921
105	0x3b54a290	0.0032445528
106	0x3e178fec	0.14800996
107	0x3d8aa3a7	0.067694955
108	0x3e534e7a	0.20635405
109	0x3bcb5bbd	0.0062060044
110	0xbf1add1c	-0.60493636
111	0xbd9874de	-0.07444166
112	0xbdee236d	-0.11627851
113	0xbcf5e4e7	-0.030016376
114	0x3e5a7ec0	0.21337414
115	0x3d70f952	0.05883152
116	0x3e87165e	0.26384252
117	0x3d5c4bbf	0.053783175
118	0xbe32d200	-0.17462921
119	0xbdbeb259	-0.09311361
120	0xbe18382d	-0.1486518
121	0xbcbd4cb6	-0.023107868
122	0x3daf3d72	0.08556642
123	0x3db56881	0.08857823
124	0x3e4b67f9	0.19863881
125	0x3d682729	0.05667797
126	0xbe2afd72	-0.16698244
127	0xbe94e728	-0.29082608
128	0x3dbd353a	0.09238668
129	0x3ec9407c	0.3930701
130	0x3ccfdd1d	0.02537399
131	0x3e5c1da3	0.2149568
132	0x3d21a263	0.039461505
133	0x3e6d384c	0.23166007
134	0x3c91c319	0.017793225
135	0x3e7f456a	0.24928823
136	0x3e050ce0	0.12993193
137	0x3cff0326	0.031129431
138	0x3a96f018	0.0011515645
139	0x3d08e190	0.03341824
140	0xbd6a315d	-0.057175983
141	0x3cfe8914	0.031071223
142	0xbdade123	-0.08490207
143	0x3cf11fa6	0.029434036
144	0x3e6325f3	0.22182445
145	0x3b224d23	0.0024765215
146	0xbb23c130	-0.0024986975
147	0x3d643831	0.05571765
148	0xbdc1bd4f	-0.09459936
149	0xbdc835d7	-0.09775894
150	0x3c518bb2	0.012789654
151	0xbf4540b5	-0.7705186
152	0x3e60669e	0.21914145
153	0x3d516d69	0.051129732
154	0x3bd25d49	0.006419812
155	0x3dab1735	0.08354036
156	0xbda164ec	-0.078805774
157	0xbe40a721	-0.18813755
158	0xbd560967	-0.05225506
159	0xbf1b97e9	-0.6077867
160	0x3e09f33f	0.13471697
161	0x3dc2b955	0.095080055
162	0xbd50d106	-0.05098059
163	0x3e16452d	0.14674826
164	0xbdb6b656	-0.089214966
165	0xbdca2503	-0.09870341
166	0x3dba7aea	0.09105475
167	0xbec8a10f	-0.39185378
168	0x3e89dbec	0.269256
169	0xbe80034b	-0.25002512
170	0x3dbc2865	0.09187392
171	0x3e92fd9f	0.28709123
172	0x3d4bc166	0.049744986
173	0x3deb8ddb	0.11501666
174	0xbb2cd8e7	-0.00263744
175	0x3d5e186e	0.054222517
176	0x3c6670c1	0.014064969
177	0x3d53b047	0.051681783
178	0xbcf9f8a8	-0.030514076
179	0x3d9f34e1	0.07773758
180	0xbbe69f2f	-0.007038019
181	0x3d8dda9f	0.06926464
182	0x3cab96e2	0.02094597
183	0x3d7666ad	0.060156513
184	0xbb6fc4f8	-0.0036585908
185	0x3d20e21e	0.039278142
186	0xbcaf787d	-0.021419758
187	0x3da75445	0.0817037
188	0x3c0e91cb	0.008701752
189	0x3d4fa558	0.050694793
190	0x3d08b873	0.03337903
191	0x3d8d8751	0.06910575
192	0xbd27792f	-0.040887054
193	0xbfb98f9a	-1.4496949
194	0xbce5c8d9	-0.028049873
195	0x3dafbc35	0.085808195
196	0x3cba2663	0.022723382
197	0x3d636448	0.055515558
198	0xbd30e320	-0.043185353
199	0x3da02f72	0.078215495
200	0x3ca735f2	0.020411465
201	0x3db35009	0.087555
202	0x3c4947bc	0.012285169
203	0x3dd7db32	0.10539855
204	0xbbdf28e5	-0.006810295
205	0x3d85b346	0.06528334
206	0xbd31b8fb	-0.0433893
207	0x3d2e0608	0.04248622
208	0xbda02975	-0.07820407
209	0x3da7b3e9	0.08188612
210	0x3d9bf890	0.07615769
211	0xbe59af06	-0.21258172
212	0x3ea7f760	0.3280592
213	0xbf8ae37c	-1.0850673
214	0x3eba738c	0.3641628
215	0xbf3d27fe	-0.7388915
216	0x3d96a793	0.07356181
217	0xbead7e2a	-0.33885318
218	0x3d91f0cf	0.07126009
219	0xbe123c74	-0.14280874
220	0x3f1dbe36	0.61618364
221	0xbe8c1820	-0.27362156
222	0xbd89f2cd	-0.06735764
223	0xbdf992ba	-0.12186189
224	0xbda691e9	-0.08133299
225	0x3d4ba12a	0.049714245
226	0xbdfac30b	-0.12244233
227	0x3dca9cd7	0.09893196
228	0x3ec1ea81	0.37874225
229	0xbe973f22	-0.29540354
230	0x3e78ab90	0.24284196
231	0xbd395cfa	-0.045254685
232	0x3e2093c6	0.15681371
233	0x3d2e2446	0.04251506
234	0x3d98e414	0.074653774
235	0xba56be96	-0.00081918517
236	0xbcdd81d3	-0.027039444
237	0xbe0ea79e	-0.13931128
238	0xbe2b311a	-0.1671795
239	0xbdb07fd6	-0.08618133
240	0xbdf45881	-0.11930943
241	0xbc7a7aac	-0.015288036
242	0xbd577895	-0.05260523
243	0xbd952c49	-0.07283837
244	0xbd521e03	-0.051298153
245	0xbdec9631	-0.11552084
246	0x3d3b21b1	0.045686428
247	0xbd1edde0	-0.038785815
248	0xbd0a7948	-0.03380707
249	0xbaf470c2	-0.0018649327
250	0xbe09f013	-0.13470487
251	0xbca3eb00	-0.020009518
252	0x3bda66c0	0.006665081
253	0xbdc3caa4	-0.09560135
254	0xbdd44ecc	-0.10366592
255	0x3f015f76	0.50536287

sequential_1/dense_4/MatMul f4 [10, 20]
0	0x3e66249c	0.22474903
1	0xbc800d65	-0.015631387
2	0xbef7127b	-0.48256287
3	0x3e4db0ce	0.20086977
4	0x3f92e574	1.1476274
5	0xbd5b67b7	-0.053565707
6	0xbee01b52	-0.43770844
7	0x3dd7ad46	0.10531096
8	0xbf653c04	-0.895447
9	0xbf601ac5	-0.8754085
10	0x3e71700b	0.23577897
11	0xbf8f2e18	-1.1185942
12	0xbf3c3275	-0.7351449
13	0x3e8363d5	0.25662103
14	0xbcbb7f46	-0.022887837
15	0x3e1944f5	0.14967711
16	0x3e098f89	0.1343366
17	0x3e54c902	0.20779803
18	0x3e075a4d	0.13218041
19	0xbf29f701	-0.66392523
20	0x3fa8ed0c	1.3197341
21	0x3f981c8a	1.188371
22	0x3f8958c9	1.073022
23	0x3da7a264	0.081852704
24	0x3c153ffd	0.009109494
25	0x3fc47eb6	1.5351169
26	0x3c63802c	0.013885539
27	0x3f024cc9	0.50898415
28	0xbe36ae35	-0.17839892
29	0x3e83703b	0.25671563
30	0x3d1c2592	0.038121767
31	0x3f15d155	0.5852254
32	0x3ea955b0	0.33073187
33	0x3f950c50	1.1644382
34	0x3f0e3772	0.5555335
35	0x3f1c7862	0.6112119
36	0x3e4d5329	0.20051254
37	0x3e694ed7	0.22783981
38	0x3f88ef82	1.0698092
39	0x3eee9881	0.46600726
40	0x3e7622fa	0.2403678
41	0x3f61c787	0.8819508
42	0x3e761e86	0.24035081
43	0x3cb53d31	0.022123905
44	0x3b95ffcd	0.004577613
45	0xbeac4d0d	-0.33652535
46	0x3f228803	0.6348879
47	0x3e82b096	0.2552535
48	0x3f94e524	1.1632428
49	0x3f9a5665	1.2057616
50	0x3cf0d2bc	0.029397361
51	0x3eb831f1	0.35975602
52	0x3f6ae429	0.91754395
53	0x3e2ee731	0.1708038
54	0x3f5afb3e	0.85539615
55	0xbfe124df	-1.7589377
56	0x3ef1928e	0.47182125
57	0x3cf4c149	0.029877322
58	0x3f0ecae9	0.55778366
59	0x3f816dc1	1.0111619
60	0xbcecb477	-0.028894646
61	0x3f69aef7	0.912826
62	0x3f18e8e8	0.59730387
63	0x3ee11370	0.43960142
64	0xbe27b77b	-0.16378586
65	0x3ed2457c	0.41068637
66	0xbe52cbdc	-0.20585579
67	0x3c1cd161	0.009571404
68	0x3e87ce98	0.26524806
69	0x3e6aa45d	0.22914262
70	0x3f5ae470	0.8550482
71	0xbde49ec0	-0.11163092
72	0xbf0251d2	-0.509061
73	0x3d3b2f11	0.045699183
74	0x3eec3948	0.46137452
75	0x3cf74539	0.030184375
76	0x3e1044b2	0.14088705
77	0x3edbfc6c	0.4296602
78	0xbf0df8a7	-0.5545754
79	0x3b9d4667	0.0047996524
80	0x3dcbae58	0.09945363
81	0x3f5d8cda	0.8654305
82	0x3f01d8b5	0.50721294
83	0xbf2fdd2a	-0.68696845
84	0xbfeb7bec	-1.8397193
85	0x3efcb856	0.49359387
86	0xbee0a939	-0.43879107
87	0x3f93a572	1.1534865
88	0x3e7ffa0c	0.24997729
89	0x3e37e034	0.1795662
90	0xbc7c25f4	-0.015389908
91	0x3daa9a48	0.08330208
92	0x3f42732d	0.75956994
93	0xbea773b3	-0.3270546
94	0x3f834993	1.0256828
95	0x3ee46349	0.44607
96	0x3eee3ba0	0.46529865
97	0x3f23c331	0.63969713
98	0x3f02a9a3	0.51040095
99	0xbf02ec24	-0.5114157
100	0xbf7412ac	-0.9534099
101	0xbe85beb4	-0.26122057
102	0x3e177b53	0.14793138
103	0x3e2f391b	0.17111628
104	0x3eb960a3	0.3620654
105	0x3e478d3b	0.19487469
106	0xbfe73054	-1.8061624
107	0xbd78b3a1	-0.060718182
108	0x3edb1a47	0.42793486
109	0x3eaac1c5	0.3335096
110	0xbeed75a6	-0.4637882
111	0x3d545308	0.051836997
112	0x3e44b92d	0.19211264
113	0xbf6c45fa	-0.92294276
114	0xbcf74e33	-0.030188655
115	0x3cf20a04	0.029545791
116	0x3c331e61	0.010932536
117	0xbf5de318	-0.8667464
118	0x3d93438c	0.07190618
119	0x3e82a20b	0.25514254
120	0x3f4c527a	0.7981335
121	0x3e166ce0	0.1468997
122	0xbece9396	-0.40346974
123	0x3f3a10d2	0.72681916
124	0x3fcea449	1.6143886
125	0x3d927a36	0.07152216
126	0x3efe798d	0.4970211
127	0xbd96fb86	-0.07372193
128	0x3cc0e493	0.023546493
129	0x3e3df242	0.18549445
130	0x3e8dfa40	0.27729988
131	0xbf1f57ec	-0.62243533
132	0x3e77f896	0.24215922
133	0xbf305e26	-0.6889366
134	0xbeb7ebbb	-0.35922036
135	0xbda65824	-0.0812228
136	0x3d88a598	0.066722095
137	0xbd26c6fc	-0.04071711
138	0x3dba020a	0.0908242
139	0x3ef6cebf	0.4820461
140	0x3f3a71ab	0.72829694
141	0x3ebb98c6	0.36639994
142	0x3dc3fc11	0.09569562
143	0xbc2c3713	-0.010511178
144	0x3d37c5ea	0.04486648
145	0x3f375d14	0.716264
146	0x3e195a89	0.14975943
147	0x3e92ecb7	0.28696224
148	0xbeabaecd	-0.335318
149	0xbd85cc6a	-0.065331295
150	0xbe16b7b7	-0.14718519
151	0x3f39580b	0.7239997
152	0xbe29a556	-0.16566977
153	0x3f750926	0.95717084
154	0x3ea5ff8a	0.32421523
155	0x3ed9ef39	0.42565325
156	0x3f28d83b	0.6595494
157	0xbed6635a	-0.41872674
158	0x3eacfc47	0.33786222
159	0x3ef13f96	0.47118825
160	0x3cafbdd2	0.021452818
161	0xbed28fa0	-0.41125202
162	0xbdd72cea	-0.105066136
163	0xbed590bc	-0.41711986
164	0x3e96e7ec	0.29473817
165	0xbecaef01	-0.3963547
166	0xbfcbb76e	-1.5915353
167	0x3ecaa60a	0.39579803
168	0xbf960a3d	-1.1721874
169	0xbfa8b742	-1.3180926
170	0x3ea0042e	0.3125319
171	0x3d080d7d	0.03321599
172	0xbf1b7fe0	-0.60741997
173	0xbe642205	-0.22278602
174	0xbe5bbf2a	-0.21459642
175	0xbe01c55e	-0.12672946
176	0x3e522755	0.20522816
177	0x3ef56af2	0.47933155
178	0x3ec56a51	0.38557675
179	0xbd3e0fc2	-0.046401747
180	0x3e63d296	0.22248301
181	0xbe76e99a	-0.2411255
182	0x3eba8445	0.3642904
183	0x3f2300d7	0.63673156
184	0x3e6f66ce	0.2337906
185	0xbeb7abd1	-0.35873273
186	0x3eb3a961	0.35090163
187	0xbdbf3592	-0.093363896
188	0x3ea471f9	0.32118204
189	0x3f1614a7	0.5862526
190	0x3eb28cbc	0.34872997
191	0x3f2743ca	0.6533781
192	0x3f1cdb18	0.6127181
193	0x3e963aa5	0.29341617
194	0xbd9e62c3	-0.07733681
195	0x3f03241a	0.5122696
196	0x3e56bcb5	0.20970424
197	0x3d413beb	0.047176283
198	0x3e036e42	0.12835029
199	0x3d12fa8b	0.035883468

sequential_1/dense_5/MatMul f4 [5, 10]
0	0x3e8057a9	0.2506688
1	0x3ebd2642	0.3694325
2	0x3ecc55c1	0.39909175
3	0xbf4cb5d2	-0.79964936
4	0xbf525529	-0.82161194
5	0x3e65c644	0.22438914
6	0x3f3f72a9	0.7478433
7	0x3f927976	1.1443317
8	0xbedeb2b6	-0.4349572
9	0x3f2db52c	0.6785457
10	0xbf48a727	-0.78380054
11	0x3f0bfe4c	0.546849
12	0x3f298ebd	0.66233426
13	0x3f6b0e0b	0.918183
14	0x3f31e41a	0.6948868
15	0xbf94e534	-1.1632447
16	0xbeeeb350	-0.4662118
17	0xbdcbeda8	-0.09957439
18	0xbf71775b	-0.94322747
19	0x3f114133	0.5674011
20	0xbf083830	-0.53210735
21	0x3e0ed14e	0.13947031
22	0xbe01e952	-0.12686661
23	0xbea1f195	-0.31629625
24	0x3f5a9b99	0.85393673
25	0xbe487bd9	-0.19578494
26	0xbfeda463	-1.8565792
27	0x3e19798f	0.14987777
28	0x3f1ce02f	0.61279577
29	0xbf3e030e	-0.7422341
30	0xbe900aad	-0.28133145
31	0xbfad6798	-1.3547239
32	0x3f6c5080	0.92310333
33	0xbf75e3d4	-0.96050763
34	0xbf6a7b9e	-0.91594875
35	0x3f41b552	0.756673
36	0x3f4b7900	0.79481506
37	0xbf7df196	-0.99196756
38	0xbf962fca	-1.1733334
39	0x3f69c213	0.9131176
40	0x3f9ee156	1.2412517
41	0xc01bdd40	-2.435379
42	0xbff48dff	-1.9105834
43	0x3f004267	0.5010132
44	0xbf547ba4	-0.8300116
45	0xbfaafcee	-1.3358438
46	0x3f82bf4a	1.0214627
47	0xc0080623	-2.1253746
48	0x3f9027d8	1.1262159
49	0xbf103a9b	-0.56339425
