model/keypoint_classifier/keypoint_classifier.tflite (tflite, 6496 bytes, 6 tensors)

sequential/dense/BiasAdd/ReadVariableOp/resource f4 [20]
-0.48794284 -0.28442585 -0.7374476 -0.8295344 -0.26991302 -0.35795042 -0.28383392 0.11921997
-0.23098528 -0.16500878 -0.38670814 -0.6568713 0.41331756 -0.643005 -0.36717373 -0.5738687
0.11691951 -0.7391196 0.42628732 -0.068202004
00000000: a5d3 f9be 44a0 91be 5ec9 3cbf 5e5c 54bf
00000010: 0a32 8abe 4745 b7be ae52 91be 9a29 f43d
00000020: 6887 6cbe 10f8 28be 9cfe c5be b828 28bf
00000030: 5c9e d33e fa9b 24bf 32fe bbbe 0fe9 12bf
00000040: 7f73 ef3d f136 3dbf 5542 da3e 7ead 8bbd

sequential/dense_1/BiasAdd/ReadVariableOp/resource f4 [10]
0.21365035 0.69019693 0.6210382 0.27056816 0.8083452 -0.35857463 -0.5168838 0.54816616
-0.1817054 0.5163861
00000000: 28c7 5a3e bfb0 303f 5cfc 1e3f e987 8a3e
00000010: b6ef 4e3f 1897 b7be 7f52 04bf 9e54 0c3f
00000020: fb10 3abe e131 043f

sequential/dense_2/BiasAdd/ReadVariableOp/resource f4 [7]
-0.59112173 -0.43473327 0.5738312 -0.04047905 0.61252695 0.38378468 0.10274837
00000000: c153 17bf 5c95 debe 9ae6 123f 5ccd 25bd
00000010: 91ce 1c3f 6d7f c43e bd6d d23d

sequential/dense/MatMul f4 [20, 42]
0.2830155 0.28751165 0.8434604 -0.8945086 0.7388734 -0.68078184 0.64469534 -0.5553746
0.7372927 -0.72912794 0.6609617 -0.38195196 -0.0004247331 0.01776865 -0.3763474 0.17759486
-0.35215113 0.1607021 0.25242907 -0.278722 0.14777032 0.074347906 -0.117735006 0.16718106
0.12763019 0.08139512 0.22582772 -0.15832235 -0.11877393 0.14456788 -0.14777109 0.29305026
-0.07274665 0.0028430196 0.023107631 0.028339628 -0.06927656 0.2613582 -0.37455457 0.18448521
-0.2961723 0.073843986 -0.22307852 -0.00029683113 0.053677876 0.44049928 0.043584574 0.2838281
0.03680218 0.23868024 -0.0154376365 0.19136012 0.030453745 0.12253898 0.0050820527 0.11382117
-0.03846568 0.049242765 -0.06706227 -1.6010451 0.007932338 0.12597853 0.009426136 0.1690544
-0.027107067 0.08459467 0.037551876 0.039932296 0.0024167032 0.14380996 -0.06259331 0.12182337
-0.09257638 0.016453732 -0.012206545 -0.115214236 0.08396292 0.17135522 -0.0031607705 0.12848943
-0.07565896 0.019763876 0.05306836 -0.105668 -0.033834577 0.13149449 -0.48347875 0.25879428
-0.037127048 0.05982248 0.15284196 -0.013499611 0.1010829 0.0049129254 0.059375614 0.018695295
0.022711769 0.009776148 0.01676604 0.24792352 0.003041422 0.28772804 0.0039012176 0.03464147
0.064497486 -0.20197617 -0.030662434 -0.9885391 -0.43832314 -0.47164646 0.22551309 -0.0781038
0.10029633 -0.25976318 -0.14788876 -0.4655935 -0.22906956 -0.5328523 0.19946852 -0.04121477
0.036197506 -0.044011462 -0.092529215 -0.26651704 -0.36348975 -0.26891515 -0.10150747 -0.17211469
-0.51763225 -0.027245862 -0.43646002 -0.05588363 -0.41366017 -0.03598713 -0.213393 -0.01837138
0.027128568 -0.023213437 0.044320103 -0.10412395 -0.05849389 0.110572524 0.12606315 0.21016432
0.03760427 -0.16955939 0.0035312863 -0.32629862 -0.085911 -0.067493096 -0.15094945 -0.04031329
0.023019077 -0.36242974 0.041901216 -0.47501338 0.11750977 -0.53889877 -0.07858926 -0.20586117
-0.035240244 -0.45035422 0.013382299 -0.6887454 -0.09850079 -0.4399151 -0.097814225 -0.3616016
0.24339461 0.19073975 0.4764152 -0.09786336 0.32740748 0.033016145 0.03842798 0.0554999
-0.055072 0.061008465 0.29085696 0.05540434 0.12967452 -0.019471176 -0.093429886 -0.031629395
-0.29669312 0.0073251836 0.2674271 0.08144975 0.070785776 0.05602894 -0.1334417 0.04641974
-0.12320773 0.030125186 0.114807084 0.18236646 -0.0014733762 0.11725712 -0.19470233 -0.5625451
-0.14526051 -0.913183 0.038954325 0.25339165 -0.04911736 0.1732549 -0.096664205 -0.15114771
-0.16001983 -0.8480354 -0.18334812 0.007729113 0.023374282 0.40535188 0.029614922 0.10177355
0.0044477545 0.066928856 -0.018369295 0.05956825 -0.05438157 0.08129048 0.014584877 0.023752918
0.008050928 0.00557354 0.009224713 0.014569942 -0.05263118 0.061262295 0.021551514 0.07159558
0.0774211 0.054568183 0.10288321 -1.4924732 -0.047993377 0.10253682 -0.03095023 0.08407327
0.06065103 0.1052314 -0.025078539 0.1183642 -0.011385194 0.14995818 -0.06023478 0.117086954
0.0075508724 0.14656565 -0.08076631 0.18800595 0.1819481 0.24715787 0.1922359 0.703446
00000000: 68e7 903e ba34 933e 05ed 573f 84fe 64bf
00000010: cf26 3d3f b847 2ebf c10a 253f 082d 0ebf
00000020: 37bf 3c3f 21a8 3abf c934 293f 358f c3be
00000030: b6ae deb9 8f8f 913c 9bb0 c0be 6ddb 353e
00000040: 274d b4be 178f 243e 623e 813e a6b4 8ebe
00000050: 1a51 173e b743 983d 0d1f f1bd 8331 2b3e
00000060: 7db1 023e 7cb2 a63d 623f 673e 411f 22be
00000070: bf3f f3bd 9a09 143e 4e51 17be af0a 963e
00000080: 32fc 94bd f451 3a3b 374c bd3c 8228 e83c
00000090: dee0 8dbd bed0 853e 9ec5 bfbe b1e9 3c3e
000000a0: e5a3 97be 843b 973d b26e 64be 00a0 9bb9
000000b0: 55dd 5b3d 1f89 e13e bd85 323d eb51 913e
000000c0: e2bd 163d 9868 743e 24ee 7cbc e8f3 433e
000000d0: 227a f93c b7f5 fa3d 5987 a63b 131b e93d
000000e0: 308e 1dbd c8b2 493d f257 89bd 0cef ccbf
000000f0: a3f6 013c 8400 013e 1470 1a3c 991c 2d3e
00000100: a40f debc f83f ad3d ffcf 193d 0c90 233d
00000110: 8d61 1e3b eb42 133e ec30 80bd 887e f93d
00000120: af98 bdbd fac9 863c f6fd 47bc 71f5 ebbd
00000130: c0f4 ab3d be77 2f3e ee24 4fbb bc92 033e
00000140: 16f3 9abd dae7 a13c 355e 593d 7768 d8bd
00000150: 2096 0abd 7ea6 063e 878a f7be af80 843e
00000160: 8812 18bd 6b08 753d 9a82 1c3e 792d 5dbc
00000170: 8d04 cf3d 9bfc a03b d833 733d e026 993c
00000180: 080e ba3c 232c 203c ef58 893c aadf 7d3e
00000190: 9852 473b 1751 933e 92ab 7f3b 37e4 0d3d
000001a0: 4217 843d d7d2 4ebe c92f fbbc e610 7dbf
000001b0: e46b e0be a57b f1be e7ec 663e e3f4 9fbd
000001c0: 2a68 cd3d aeff 84be 2770 17be 4562 eebe
000001d0: 3691 6abe 0269 08bf 7a41 4c3e d2d0 28bd
000001e0: d643 143d 5d45 34bd f57f bdbd ec74 88be
000001f0: 541b babe 3faf 89be 26e3 cfbd d53e 30be
00000200: 8c83 04bf b732 dfbc b077 dfbe 3ce6 64bd
00000210: 44cb d3be 3e67 13bd b283 5abe 947f 96bc
00000220: bb3c de3c 1b2a bebc ff88 353d f03e d5bd
00000230: 4a97 6fbd d973 e23d b316 013e 5135 573e
00000240: ef06 1a3d faa0 2dbe 276d 673b 9d10 a7be
00000250: 1bf2 afbd d239 8abd 7e92 1abe 8c1f 25bd
00000260: 8192 bc3c 6490 b9be 9ca0 2b3d f434 f3be
00000270: f6a8 f03d 45f5 09bf 68f3 a0bd 45cd 52be
00000280: 1358 10bd d494 e6be 6e41 5b3c 9e51 30bf
00000290: c8ba c9bd 8d3c e1be d352 c8bd d823 b9be
000002a0: 703c 793e 4851 433e b1ec f33e 966c c8bd
000002b0: f4a1 a73e f03b 073d a866 1d3d dd53 633d
000002c0: 2d93 61bd 03e4 793d 34eb 943e a9ef 623d
000002d0: 66c9 043e 0482 9fbc 2b58 bfbd d38d 01bd
000002e0: 29e8 97be 1808 f03b 34ec 883e 20cf a63d
000002f0: 22f8 903d 9a7e 653d f1a4 08be a022 3e3d
00000300: 5654 fcbd 18c9 f63c fa1f eb3d 46be 3a3e
00000310: 4d1e c1ba 8024 f03d 0c60 47be f502 10bf
00000320: 2cbf 14be 5cc6 69bf 928e 1f3d 8dbc 813e
00000330: 492f 49bd bc69 313e e2f7 c5bd 77c6 1abe
00000340: 3ddc 23be d918 59bf 9cbf 3bbe 8044 fd3b
00000350: 6c7b bf3c 488a cf3e fe9a f23c a76e d03d
00000360: 78be 913b ff11 893d 347b 96bc d6fd 733d
00000370: 36bf 5ebd a07b a63d 68f5 6e3c 7b95 c23c
00000380: 0ae8 033c 3ea2 b63b 4023 173c c4b6 6e3c
00000390: cb93 57bd 2cee 7a3d cd8c b03c b4a0 923d
000003a0: f48e 9e3d e382 5f3d 6fb4 d23d 5d09 bfbf
000003b0: b494 44bd d3fe d13d 568b fdbc 9b2e ac3d
000003c0: 376d 783d 8f83 d73d 8271 cdbc ee68 f23d
000003d0: f788 3abc a38e 193e bfb8 76bd 49cb ef3d
000003e0: 4f6d f73b 4e15 163e cf68 a5bd a284 403e
000003f0: 9a50 3a3e f416 7d3e 7dd9 443e 0915 343f

sequential/dense_1/MatMul f4 [10, 20]
-0.3580309 -0.26011807 0.47971258 0.3254801 -0.41632137 0.24013074 0.44023716 0.0341185
0.17624603 -0.23478803 -0.20993567 -0.24864823 -0.6867667 0.48658392 -0.29252854 0.29677695
-0.54185563 0.16750829 -0.16715024 0.45551446 0.00230671 0.15480271 0.41741136 0.51757634
0.036875993 -0.76345533 -0.29783997 0.14406325 -0.35574368 0.06857727 -0.2825618 0.53169185
-0.23162888 1.284721 0.11568244 0.24394014 -0.7009544 0.21659286 -0.09943443 -0.30323693
0.038736265 1.4805851 0.07610404 0.04479783 -0.17779228 0.5971811 0.29974133 0.24729873
0.322527 0.049259037 -0.020481609 -0.20149975 0.12084172 -0.33263305 0.71371204 0.13209784
0.026552752 0.2304387 0.4614995 0.50334376 0.053724024 0.42839503 0.81953216 0.57588595
0.5974091 1.5757295 1.1110831 -0.75604415 0.08233498 0.47174785 0.8582194 0.5393667
-0.80337566 0.030674247 -0.18039773 0.55320793 0.03760516 -0.0577986 -1.1591173 -0.0921292
0.36939746 1.3037491 0.07497528 0.04182871 0.040153943 -0.4145433 -0.2894786 0.37257254
0.61316186 -0.054501213 -0.2205502 -0.0010326309 0.23201458 0.36839202 -0.16184813 0.8106414
0.18034767 0.33552384 0.22750327 0.6515929 0.11760943 0.20662172 0.37105668 0.5437163
1.6155623 -0.03905663 -0.5377797 0.46141946 0.023243213 0.79341924 0.85817575 1.2474065
0.58717847 0.38744497 0.6672841 0.1854896 0.22542892 0.03274878 0.7858243 0.08492784
1.306068 0.13787413 0.13544196 0.25254053 0.13971463 0.06728789 0.023214271 0.69470614
0.3578493 0.10331011 0.118563406 0.56259364 0.019243509 -0.1969061 0.57416266 0.11500168
0.42342868 1.3929296 0.47591254 1.1491106 0.629251 -0.24862488 0.0067303986 -0.46301535
-0.15250221 -0.07061497 -0.36152455 0.66073036 -0.07178663 -0.24541056 0.45405287 -0.1707836
-0.07687861 0.17778914 0.7978922 0.098902285 -0.26724687 0.98926497 -0.46705663 -0.17867792
0.1745666 0.1820814 0.28622085 0.18678764 1.0661904 -0.24915399 0.73521525 -0.24770804
1.3975471 1.5038067 1.0263298 0.8071593 0.60485166 0.16315278 0.8641315 0.1577694
1.0492018 0.12179232 0.8356153 0.16528168 0.5615309 -0.56528217 0.019738361 0.060632423
-0.0040523564 -1.4583813 -0.8823189 -0.1014961 -0.49548975 -0.09172098 -0.36112368 0.026256915
-0.2524575 0.071765415 -0.20822062 0.16270752 0.30463985 0.56411594 -0.4161565 0.28213492
00000000: d34f b7be 322e 85be e39c f53e 54a5 a63e
00000010: 1328 d5be d5e4 753e c466 e13e d7bf 0b3d
00000020: d779 343e 466c 70be 60f9 56be a49d 7ebe
00000030: f1cf 2fbf 8721 f93e 4dc6 95be 26f3 973e
00000040: 0db7 0abf 4b87 2b3e 6f29 2bbe 3139 e93e
00000050: 2c2c 173b 9a84 1e3e f1b6 d53e e27f 043f
00000060: 480b 173d cf71 43bf 7b7e 98be 5185 133e
00000070: 0924 b6be 3d72 8c3d f1ab 90be f51c 083f
00000080: 1f30 6dbe bd71 a43f eaea ec3d 72cb 793e
00000090: bf71 33bf 85ca 5d3e 47a4 cbbd df41 9bbe
000000a0: eba9 1e3d d083 bd3f 6fdc 9b3d ee7d 373d
000000b0: 2e0f 36be dce0 183f b277 993e e13b 7d3e
000000c0: 4222 a53e d8c3 493d 0cc9 a7bc f355 4ebe
000000d0: dd7b f73d e14e aabe d5b5 363f a844 073e
000000e0: 2885 d93c 1ff8 6b3e aa49 ec3e 23db 003f
000000f0: b90d 5c3d 9856 db3e dccc 513f 436d 133f
00000100: ceef 183f 81b1 c93f f937 8e3f 1c8c 41bf
00000110: 3e9f a83d ef88 f13e 44b4 5b3f f013 0a3f
00000120: 07aa 4dbf 8f48 fb3c 2fba 38be 099f 0d3f
00000130: de07 1a3d 3abe 6cbd f55d 94bf 3cae bcbd
00000140: aa21 bd3e 40e1 a63f a48c 993d 9554 2b3d
00000150: 7678 243d 053f d4be 8a36 94be d4c1 be3e
00000160: 2df8 1c3f aa3c 5fbd e9d7 61be 5859 87ba
00000170: 3b95 6d3e e19d bc3e 84bb 25be 3286 4f3f
00000180: 0fad 383e c8c9 ab3e 9ef6 683e cbce 263f
00000190: 36dd f03d a594 533e 24fb bd3e fe30 0b3f
000001a0: bfca ce3f d8f9 1fbd eeab 09bf 2c3f ec3e
000001b0: 8d68 be3c 861d 4b3f 68b1 5b3f 04ab 9f3f
000001c0: 5451 163f 305f c63e 21d3 2a3f fcf0 3d3e
000001d0: d7d6 663e 9623 063d c82b 493f a6ee ad3d
000001e0: 3c2d a73f e02e 0d3e 4cb1 0a3e fe4c 813e
000001f0: 5a11 0f3e 3cce 893d db2b be3c 43d8 313f
00000200: 0638 b73e 4094 d33d 5fd1 f23d 2306 103f
00000210: 90a4 9d3c c1a1 49be 53fc 123f 0086 eb3d
00000220: a5cb d83e 844b b23f cfaa f33e 0e16 933f
00000230: 9816 213f 8597 7ebe ad8a dc3b 5910 edbe
00000240: 8a29 1cbe 959e 90bd bf19 b9be a025 293f
00000250: de04 93bd e84c 7bbe 9e79 e83e e5e1 2ebe
00000260: 8872 9dbd 5b0e 363e aa42 4c3f 488d ca3d
00000270: 95d4 88be 7840 7d3f 0c22 efbe 58f7 36be
00000280: 96c1 323e 8c73 3a3e 8a8b 923e 4245 3f3e
00000290: ed78 883f 3922 7fbe 1137 3c3f 2da7 7dbe
000002a0: d3e2 b23f bd7c c03f c65e 833f fea1 4e3f
000002b0: 8fd7 1a3f 8611 273e b937 5d3f 4d8e 213e
000002c0: 3f4c 863f 406e f93d e2ea 553f 9a3f 293e
000002d0: 7dc0 0f3f 55b6 10bf 58b2 a13c b459 783d
000002e0: a1c9 84bb 3dac babf a7df 61bf 30dd cfbd
000002f0: d5b0 fdbe 36d8 bbbd 34e5 b8be be18 d73c
00000300: 1c42 81be bff9 923d c937 55be cd9c 263e
00000310: c1f9 9b3e e769 103f 7712 d5be fd73 903e

sequential/dense_2/MatMul f4 [7, 10]
-0.26030716 -0.6435961 -0.0066881017 0.6036491 0.05058733 0.16771503 0.6885119 0.5883923
0.21060964 -0.6255454 0.4597584 0.55778146 -0.8017375 -0.37772915 0.24249667 -0.14740944
0.53449273 0.11351665 0.65347594 0.63279027 -0.64075714 0.7838137 -0.05924788 -0.842307
0.93494314 0.074858986 -0.006339898 -0.6363265 -0.011929115 0.47539276 -0.11449994 0.35953522
-1.0159738 0.6686797 -1.6512542 0.24043502 -0.6468242 -0.034143683 0.25334796 -1.00741
0.8416517 0.4975585 0.32935628 0.879971 0.4218884 -1.5371267 -2.2016964 -1.76823
-1.4953331 -0.3803235 -0.09500086 -0.6359657 0.049850475 -1.6004703 0.5493547 -1.6755178
0.3803276 0.77619284 -2.1360252 0.9811253 0.010816337 -0.5491872 0.46975142 -0.730672
-0.7051307 -0.6596874 -0.35208836 -0.7754396 1.0668828 -0.42979217
00000000: fb46 85be b7c2 24bf dd27 dbbb bf88 1a3f
00000010: a934 4f3d 7dbd 2b3e 5142 303f e1a0 163f
00000020: 0eaa 573e be23 20bf 7465 eb3e c4ca 0e3f
00000030: ab3e 4dbf b765 c1be 0c51 783e 80f2 16be
00000040: 84d4 083f 6b7b e83d 334a 273f 8bfe 213f
00000050: a908 24bf 04a8 483f e8ad 72bd 6ea1 57bf
00000060: 6f58 6f3f ab4f 993d ebbe cfbb 4be6 22bf
00000070: 5672 43bc ae66 f33e f27e eabd 0015 b83e
00000080: 6e0b 82bf 982e 2b3f 4c5c d3bf 9934 763e
00000090: 4596 25bf 3fda 0bbd d3b6 813e d0f2 80bf
000000a0: 7c76 573f fdbf fe3e 63a1 a83e c845 613f
000000b0: c201 d83e 91c0 c4bf 98e8 0cc0 5c55 e2bf
000000c0: 1367 bfbf c3b9 c2be d08f c2bd a6ce 22bf
000000d0: 0330 4c3d 36dc ccbf 82a2 0c3f 5e77 d6bf
000000e0: 4dba c23e 93b4 463f a3b4 08c0 072b 7b3f
000000f0: 0137 313c 8897 0cbf 4283 f03e 520d 3bbf
00000100: 7283 34bf 46e1 28bf ed44 b4be 3683 46bf
00000110: 9e8f 883f b80d dcbe
