model/point_history_classifier/point_history_classifier.tflite (tflite, 6240 bytes, 6 tensors)

sequential/dense/BiasAdd/ReadVariableOp/resource f4 [24]
0	0xbdfd7c86	-0.123772666
1	0xbd93e131	-0.07220686
2	0xbe02a3cc	-0.12757796
3	0xbd2c60e2	-0.042084582
4	0xbe0b82cb	-0.13624112
5	0xbdca7cae	-0.09887062
6	0xbdd7803b	-0.10522505
7	0xbd7007b6	-0.058601104
8	0xbd831e07	-0.06402212
9	0xbdf2f986	-0.11863999
10	0xbd247094	-0.040146425
11	0xbdb58944	-0.08864072
12	0xbe470cf4	-0.19438535
13	0xbda6e568	-0.081492245
14	0xbd86119d	-0.06546328
15	0xbe1f5013	-0.1555789
16	0xbdc4693a	-0.09590383
17	0xbd71dfec	-0.05905144
18	0xbd42a20e	-0.04751783
19	0xbd54ee6d	-0.051985193
20	0xbdc0a167	-0.09405785
21	0xbc835ce1	-0.016035499
22	0xbd6d02aa	-0.05786387
23	0xbe3bd668	-0.18343508

sequential/dense_1/BiasAdd/ReadVariableOp/resource f4 [10]
0	0x399ec483	0.0003028252
1	0xb8c5b1a3	-9.4267794e-05
2	0x3bb061cb	0.0053827516
3	0x3ef9e6fb	0.48809037
4	0x3a32b64c	0.00068173255
5	0x3df88d04	0.121362716
6	0x3f8a1324	1.0787091
7	0x3eda805f	0.42676064
8	0x3f678565	0.9043792
9	0x3a1127b7	0.0005537229

sequential/dense_2/BiasAdd/ReadVariableOp/resource f4 [4]
0	0x3edb6080	0.4284706
1	0x3f4c324e	0.7976426
2	0xbf8d5b95	-1.1043574
3	0xbddf586e	-0.109055385

sequential/dense/MatMul f4 [24, 32]
0	0x3e022cec	0.12712449
1	0xbe8eeb90	-0.27914095
2	0x3e44b3f0	0.19209266
3	0xbfd4ad94	-1.6615472
4	0x3d9e3b9e	0.07726215
5	0xbfa7c05e	-1.3105581
6	0x3ed7a685	0.42119232
7	0xbf37542c	-0.7161281
8	0x3f19ee15	0.6012891
9	0xbf15b275	-0.5847543
10	0x3f0bee5f	0.546606
11	0xbebc9931	-0.36835626
12	0x3f35f172	0.7107154
13	0xbe2e3be2	-0.17015031
14	0x3f083f82	0.53221905
15	0x3e5c3599	0.21504821
16	0x3f493a6c	0.7860477
17	0x3debc5dc	0.11512348
18	0x3eee7be5	0.465789
19	0x3ecbe48a	0.398228
20	0x3ef4be46	0.47801417
21	0x3ec3817e	0.38184732
22	0x3eb22468	0.347934
23	0x3eab4f7f	0.33459088
24	0x3deb4745	0.11488203
25	0x3f02ab38	0.5104251
26	0xbeace830	-0.33770895
27	0x3ee7ec55	0.45297495
28	0xbeb3166e	-0.3497805
29	0x3f00bcb7	0.50287956
30	0xbe937080	-0.28796768
31	0x3eb1a02a	0.34692508
32	0xbe852447	-0.2600424
33	0x3e834994	0.25642073
34	0x3e8c393c	0.27387416
35	0x3fbc00b5	1.4687716
36	0x3ef16867	0.47149965
37	0x3fac3090	1.345232
38	0x3e27ad5d	0.16374727
39	0x3f733698	0.9500518
40	0x3ebc8285	0.36818328
41	0x3efb7a8e	0.4911694
42	0x3de841ce	0.11340676
43	0x3e723584	0.23653227
44	0xbd16dc38	-0.03683111
45	0x3e977790	0.29583406
46	0xbee56b88	-0.44808602
47	0x3cd7283b	0.0262643
48	0xbede87ac	-0.43462884
49	0xbd763fa3	-0.060119282
50	0xbdcf1310	-0.10111058
51	0xbdc8a06f	-0.09796225
52	0x3eac69de	0.3367452
53	0x3d335c4b	0.04378919
54	0x3e0dadea	0.13835874
55	0x3c85ec27	0.016347958
56	0x3f05d8fe	0.5228423
57	0x3e65bdcb	0.22435682
58	0x3f9b36ca	1.2126095
59	0x3e114011	0.14184596
60	0x3fe99032	1.824713
61	0x3ee7a540	0.45243263
62	0x3fed107c	1.8520656
63	0x3f8a3025	1.0795943
64	0xbdd6de40	-0.104916096
65	0x3d6c0820	0.057624936
66	0xbf3ff7a4	-0.74987245
67	0x3fa389e2	1.2776453
68	0xbea1c441	-0.31595042
69	0x3f86a194	1.051806
70	0xbf12cb45	-0.57341415
71	0x3f1b9a4e	0.60782325
72	0xbf1b1310	-0.6057596
73	0x3f11e533	0.56990355
74	0xbeed9f50	-0.46410608
75	0x3e955f66	0.29174346
76	0xbf191606	-0.5979923
77	0x3d1831cc	0.037156865
78	0xbf378ae1	-0.7169629
79	0xbe56c28b	-0.2097265
80	0xbeef4b93	-0.46737346
81	0xbebe318b	-0.37147173
82	0xbefc0f5b	-0.49230465
83	0xbeb8ca58	-0.36091876
84	0xbe2d8565	-0.16945417
85	0xbf015844	-0.5052531
86	0xbeabe501	-0.33573154
87	0xbf0ff12d	-0.5622738
88	0xbcbab376	-0.022790652
89	0xbeebfa32	-0.4608932
90	0x3da308c3	0.079606555
91	0xbeeafc6d	-0.4589571
92	0x3f4893d8	0.7835059
93	0xbf014085	-0.50489074
94	0x3f069801	0.5257569
95	0xbeaeb77c	-0.34124362
96	0xbe5d3d52	-0.21605423
97	0x3dd696f0	0.10478008
98	0x3f845c5b	1.0340685
99	0xbe5d1d8a	-0.215933
100	0x3f9ec5ef	1.2404155
101	0x3e98a350	0.29812098
102	0x3f1ff3a7	0.6248116
103	0xbe062b6d	-0.13102503
104	0x3e32cd13	0.17461042
105	0x3eabb40c	0.33535802
106	0x3cbf9e9a	0.023391057
107	0x3e27a4e1	0.1637149
108	0xbe191983	-0.14951138
109	0x3e59bb40	0.21262836
110	0x3e6cf260	0.23139334
111	0x3ec7ab9a	0.3899811
112	0x3e22ca2e	0.15897438
113	0x3e17c9e1	0.14823104
114	0xbcdb1dc4	-0.026747592
115	0x3e47d072	0.1951311
116	0x3da0da8f	0.07854187
117	0x3e621382	0.22077754
118	0x3edf804f	0.4365258
119	0x3e63e4e3	0.22255282
120	0x3f1a7b6c	0.60344577
121	0xbcf47855	-0.029842535
122	0x3f08da65	0.53458244
123	0xbebbef82	-0.36706167
124	0x3f55903a	0.834232
125	0xbefe8ee7	-0.497184
126	0x3f9bc76e	1.2170236
127	0xbfcd8c12	-1.6058371
128	0x3e82dab4	0.25557482
129	0x3e539a18	0.20664251
130	0x3f2c0e08	0.6720891
131	0xbf8b1e90	-1.0868702
132	0x3fb08ab8	1.3792334
133	0xbf199310	-0.59990025
134	0x3f3387e5	0.70129234
135	0xbf229379	-0.63506275
136	0x3f47bbd4	0.7802098
137	0xbe6de194	-0.23230582
138	0x3f18cf4d	0.59691316
139	0x3dbe0c7d	0.09279726
140	0x3f175347	0.59111446
141	0x3e81d7a4	0.25359833
142	0x3f0207e6	0.507933
143	0x3ea8c34b	0.32961497
144	0x3eb378fc	0.3505324
145	0x3edde3d7	0.4333789
146	0x3d658f81	0.05604506
147	0x3ee3e817	0.44513008
148	0xbe03cf7d	-0.12872119
149	0x3f026250	0.5093126
150	0xbe98f3fc	-0.29873645
151	0x3ea37025	0.31921497
152	0xbeb70290	-0.35744143
153	0x3ecaa4c8	0.39578843
154	0xbee314df	-0.4435186
155	0x3e4866d6	0.19570479
156	0xbecae816	-0.39630193
157	0x3e40ea5d	0.18839402
158	0xbee80c2d	-0.4532179
159	0xbd3562a8	-0.04428354
160	0xbe938cbd	-0.28818312
161	0x3e54add8	0.20769441
162	0x3fb6dfa7	1.4287003
163	0x3f17e9e1	0.59341246
164	0x3f851a65	1.039868
165	0x3f3d4160	0.7392788
166	0x3f6a62f7	0.9155726
167	0x3f1e7261	0.6189328
168	0x3ef4db56	0.4782359
169	0x3f159bb6	0.5844072
170	0x3e9b263a	0.30302602
171	0x3ef6ea71	0.4822574
172	0xbe4966fe	-0.19668195
173	0x3e9fd004	0.3121339
174	0xbe79c350	-0.24390912
175	0x3ea11319	0.31459883
176	0xbf2165fd	-0.63046247
177	0x3ee3840d	0.44436684
178	0xbf0da968	-0.5533662
179	0x3e8e321c	0.27772605
180	0xbf3c5ba1	-0.73577315
181	0x3e2aa1d9	0.16663302
182	0xbf44bb68	-0.7684846
183	0x3e0bff36	0.13671574
184	0xbf0cc418	-0.54986715
185	0xbe446b89	-0.19181646
186	0xbf2c5c1e	-0.6732806
187	0xbebcac77	-0.3685033
188	0xbe44ea1b	-0.19229929
189	0xbefe2338	-0.49636245
190	0x3c3980c0	0.0113222
191	0xbef5801c	-0.47949302
192	0x3ea60d48	0.32432008
193	0x3e9cb140	0.3060398
194	0xbf6e3e69	-0.9306398
195	0xbf4e5a62	-0.80606663
196	0xbf8a6d5f	-1.0814627
197	0xbf1c2a07	-0.6100163
198	0xbf8cf4ee	-1.1012247
199	0xbec2eee9	-0.380729
200	0xbf89a087	-1.0752114
201	0xbd434ad0	-0.04767877
202	0xbf667d7c	-0.90035224
203	0x3e04ac68	0.12956393
204	0xbeff9416	-0.49917668
205	0x3e9b98ba	0.3038996
206	0xbeb01f92	-0.34399086
207	0x3eb058fb	0.34442887
208	0x3d122674	0.035681203
209	0x3ebd76a0	0.37004566
210	0x3e0064c3	0.12538438
211	0x3ecce5ad	0.4001898
212	0x3e8d03ba	0.27541906
213	0x3ea8c304	0.32961285
214	0x3ef6b92c	0.4818815
215	0x3e9621c0	0.29322624
216	0x3f1c8a7e	0.6114882
217	0x3e6a21c1	0.22864439
218	0x3eedd572	0.46451908
219	0x3e3390f2	0.17535761
220	0x3eab68b0	0.33478308
221	0x3cef8620	0.02923876
222	0xbe3e239e	-0.18568274
223	0xbe1e6ad6	-0.15470442
224	0x3d5d9238	0.054094523
225	0x3e865b1e	0.26241392
226	0x3f95ec74	1.1712785
227	0xbdaf4396	-0.08557813
228	0x3f736e24	0.95089936
229	0xbed861e9	-0.422622
230	0x3f6fc7d3	0.9366428
231	0xbf09e9e2	-0.538725
232	0x3f18242a	0.5943018
233	0xbefbb80c	-0.49163854
234	0x3e40c926	0.18826732
235	0xbeb624c1	-0.35574916
236	0xbe16e760	-0.147367
237	0xbea04f89	-0.3131068
238	0xbee08f6f	-0.4385943
239	0xbe8dfee8	-0.2773354
240	0xbf06abf5	-0.52606136
241	0xbdf815c5	-0.12113527
242	0xbf1ee384	-0.6206591
243	0x3d1efed9	0.03881726
244	0xbf3d2489	-0.73883873
245	0x3dcfdb3b	0.10149237
246	0xbf002c69	-0.50067765
247	0x3e428a74	0.18998128
248	0xbe613457	-0.21992622
249	0x3e877472	0.26456028
250	0x3d945c35	0.072441496
251	0x3e972060	0.29516888
252	0x3ebe6274	0.3718449
253	0x3c237582	0.0099767465
254	0x3f704414	0.9385388
255	0xbcfc2ad8	-0.030782148

sequential/dense_1/MatMul f4 [10, 24]
0	0xbd17907c	-0.037003025
1	0x3f8a3daf	1.0800074
2	0xbc339cce	-0.010962678
3	0x3f9a4d22	1.2054789
4	0xbd87a3ee	-0.06623064
5	0x3e95125f	0.2911558
6	0x3f8db02b	1.1069387
7	0x3f831ecb	1.0243772
8	0x3ee8079f	0.45318314
9	0xbcc8510b	-0.024452707
10	0xbcdb8f4e	-0.026801731
11	0x3fc47a8f	1.5349902
12	0x3f5dbccf	0.86616224
13	0x3dc44d58	0.09585065
14	0x3f23ea56	0.64029443
15	0x3fa22318	1.266696
16	0x3f848bd3	1.0355171
17	0x3f31e7d6	0.6949438
18	0x3eb3626c	0.35036027
19	0x3f025b20	0.50920296
20	0x3de4879c	0.11158678
21	0x3f900ad5	1.1253306
22	0x3fa6d624	1.30341
23	0x3f51e284	0.8198626
24	0xbec41a72	-0.38301426
25	0xbe6a1a63	-0.22861628
26	0xbe667c81	-0.22508432
27	0xbe89d088	-0.2691691
28	0xbe9ae5a2	-0.3025332
29	0xbec368c0	-0.38165855
30	0xbf1200f3	-0.570327
31	0x3db42a96	0.08797185
32	0x3f965811	1.1745626
33	0xbd575135	-0.05256768
34	0x3f85b447	1.0445641
35	0x3d7f387f	0.06230974
36	0x3dd92ae7	0.10603886
37	0x3f4ddcc1	0.8041497
38	0x3da3dee1	0.08001495
39	0xbf655ce4	-0.89594865
40	0xbec806e9	-0.39067772
41	0x3ee7579d	0.4518403
42	0xbd5d7b92	-0.054072924
43	0x3debe7ee	0.115188465
44	0x3e124faf	0.1428821
45	0xbf3a7acc	-0.72843623
46	0x3e9a7668	0.30168462
47	0x3d52fd1e	0.051510923
48	0x3c8a51a7	0.016884638
49	0xbf840a50	-1.0315647
50	0xbcc6b573	-0.024256444
51	0x3e1b2e7c	0.15154451
52	0x3bb106a4	0.005402403
53	0xbd7f7dbc	-0.06237577
54	0x3fcc6db8	1.5970984
55	0x3f54565c	0.82944274
56	0x3d6e24c3	0.058140527
57	0x3d01d9ad	0.031701732
58	0x3f010123	0.5039236
59	0x3f9580ab	1.1679891
60	0x3f6045b5	0.87606364
61	0x3e4bc75a	0.19900265
62	0x3e2468ba	0.16055575
63	0x3f3bdf47	0.7338757
64	0x3f2fad45	0.68623763
65	0x3df502e7	0.11963444
66	0x3db9b09b	0.09066888
67	0x3f47795c	0.77919555
68	0x3e077bf7	0.13230883
69	0xbfac39e8	-1.3455172
70	0x3f50bb8e	0.81536186
71	0x3f6af1d6	0.9177526
72	0x3fad2269	1.3526126
73	0x3f1b2d81	0.6061631
74	0x3f715e79	0.9428478
75	0x3f636fa3	0.8884222
76	0x3f84c323	1.0372051
77	0x3f923e64	1.142529
78	0x3ecaa2d8	0.39577365
79	0x3f316809	0.6929937
80	0x3f9c05a5	1.2189223
81	0x3fb04684	1.377152
82	0x3f4e5d91	0.8061152
83	0x3e85c22c	0.26124704
84	0x3f3636f3	0.71177596
85	0x3f81ff5f	1.0156058
86	0x3f0cccee	0.550002
87	0x3f041dd2	0.51608
88	0x3f19b2cb	0.6003844
89	0x3fbd9b13	1.481295
90	0x3f867454	1.050425
91	0x3f585ee5	0.845198
92	0x3ee1d3c2	0.4410687
93	0x3f1240db	0.5713021
94	0x3ec8200c	0.3908695
95	0x3f81e0e3	1.0146755
96	0x3eab1f7c	0.33422458
97	0xbe1f8814	-0.15579253
98	0x3efd33a1	0.49453452
99	0x3d8eb8c3	0.06968834
100	0xbf2f7e16	-0.68551767
101	0x3da5f5f2	0.08103551
102	0x3f36062f	0.71103185
103	0x3f4c16a9	0.79722077
104	0x3f6a0983	0.91420764
105	0x3ee6dcbf	0.4509029
106	0x3f545c3a	0.82953227
107	0xbfc979f0	-1.5740337
108	0x3ed31e9f	0.412343
109	0x3e88bfeb	0.26708922
110	0xbdf9e3d1	-0.12201656
111	0xbf05fc00	-0.52337646
112	0xbe58eef4	-0.21184903
113	0x3e8b6672	0.27226597
114	0x3d4a53b9	0.04939625
115	0xbe6f0c9b	-0.23344652
116	0xbe8afc9e	-0.27145857
117	0x3f7dc55a	0.9912926
118	0x3f1ccd58	0.6125083
119	0x3d740d23	0.05958284
120	0x3da57d9d	0.080805995
121	0x3ec48326	0.38381308
122	0x3d59bd96	0.05315932
123	0x3ec53554	0.3851725
124	0xbe6d5bba	-0.23179522
125	0xbe4e3087	-0.20135699
126	0x3f3a6db3	0.7282364
127	0x3e2d8263	0.1694427
128	0xbe472d72	-0.1945093
129	0x3eb87c07	0.36032125
130	0x3d80abe0	0.062827826
131	0x3dd6d875	0.10490505
132	0x3f6cf88f	0.9256677
133	0x3f22f83e	0.6366004
134	0x3defad0f	0.1170293
135	0x3f030455	0.51178485
136	0x3e4c8675	0.19973166
137	0x3eda3050	0.42614985
138	0x3d8f1bf9	0.06987757
139	0x3e51be89	0.2048284
140	0x3d4b3ec4	0.049620405
141	0x3d4a27e0	0.049354434
142	0x3f457d30	0.77144146
143	0x3f32a401	0.697815
144	0xbfc10724	-1.5080304
145	0xc0504083	-3.2539375
146	0xbfcb3d94	-1.5878167
147	0xc0434654	-3.0511675
148	0xbfeeb41e	-1.8648717
149	0xbf9e6908	-1.2375803
150	0xc0259c93	-2.5876815
151	0xc021972c	-2.5248518
152	0xbfd9981b	-1.6999544
153	0xbfbec11c	-1.4902682
154	0xbfb85ecc	-1.440393
155	0xc00fdc41	-2.2478182
156	0xbfc040fd	-1.5019833
157	0xbfdf92fa	-1.7466729
158	0xc033a048	-2.8066578
159	0xbfd3fe62	-1.6562006
160	0xbfdabe10	-1.7089252
161	0xbf9ae1ef	-1.21002
162	0xc05a89f7	-3.4146707
163	0xbf985d62	-1.1903498
164	0xc0194c84	-2.3952951
165	0xbfd8b631	-1.69306
166	0xbfd396a0	-1.6530342
167	0xc04a99bc	-3.1656332
168	0x3fbc043d	1.4688793
169	0x3f0571ad	0.5212658
170	0x3f818f62	1.0121882
171	0x3f528c0a	0.8224493
172	0x3fa59248	1.2935266
173	0x3f75a91e	0.9596118
174	0x3f2756c7	0.65366787
175	0x3ed74ab6	0.42049187
176	0x3fac0736	1.3439701
177	0x3fb7f072	1.4370253
178	0x3f8ab526	1.0836532
179	0x3f4eefd5	0.80834705
180	0x3ec595b3	0.38590774
181	0x3fcc6fbf	1.5971602
182	0x3f05d91e	0.5228442
183	0x3ee234a0	0.44180775
184	0x3f8e16b8	1.1100683
185	0x3fac4bd3	1.346064
186	0x3fa60389	1.2969829
187	0x3fa17e4f	1.2616671
188	0x3f8dddde	1.1083333
189	0x3f95e24e	1.1709688
190	0x3f3b45d6	0.73153436
191	0x3f01a693	0.506448
192	0xbf8977c7	-1.0739678
193	0xbe6b76ca	-0.22994533
194	0xbfc6b624	-1.5524335
195	0xbebf5adc	-0.37374008
196	0xbfde855a	-1.7384446
197	0xbfc66618	-1.5499907
198	0x3edcdeb5	0.43138662
199	0x3f46d5da	0.7767006
200	0x3ecbb902	0.39789587
201	0xbfc07bad	-1.5037743
202	0x3e1ba912	0.15201214
203	0x3eefdcd3	0.46848163
204	0x3d07ec46	0.033184312
205	0xbf3bdb58	-0.73381567
206	0xbf35948c	-0.7092979
207	0x3ecc51b6	0.3990609
208	0x3da6d2bf	0.081456654
209	0xbf1a01c9	-0.60158974
210	0xbf14e2bf	-0.5815849
211	0xbeb064ce	-0.34451908
212	0xbf9ec019	-1.2402374
213	0x3eb88dad	0.3604559
214	0x3e735dd1	0.23766257
215	0xbe1bda49	-0.15219988
216	0xbe787be4	-0.2426601
217	0x3f87681b	1.0578645
218	0xbba434e0	-0.005011186
219	0x3f59e52f	0.8511533
220	0xbe51cbd2	-0.20487908
221	0xbd8ec47c	-0.0697107
222	0x3fb8d2d9	1.4439346
223	0x3f38bf81	0.7216721
224	0x3e48a447	0.19593917
225	0xbe0cfb9b	-0.13767855
226	0xbd5fa452	-0.054600067
227	0x3f859264	1.04353
228	0x3f8ac1ab	1.0840353
229	0xbe2406a3	-0.16018157
230	0xbdf1c919	-0.118059345
231	0x3f9ab3cc	1.208612
232	0x3f6b329c	0.918741
233	0xbd32d3fa	-0.043659188
234	0xbe2cfbf2	-0.16892985
235	0x3f7b0a15	0.9806226
236	0xbd7d6dbe	-0.061872236
237	0x3f9b7ae6	1.2146881
238	0x3f082ef4	0.53196645
239	0x3f6bf649	0.92172676

sequential/dense_2/MatMul f4 [4, 10]
0	0xc0a8d1d9	-5.275616
1	0xc0975d82	-4.7301645
2	0xc0900207	-4.5002475
3	0xc02d71b6	-2.7100654
4	0xc0a0a36d	-5.0199494
5	0xbff6b4a5	-1.9273878
6	0x4039460e	2.8949008
7	0xc036f7cd	-2.8588746
8	0x3fc127a4	1.5090222
9	0xc099c492	-4.8052454
10	0xbf1d102b	-0.61352795
11	0x3f950321	1.164158
12	0xbfed9b22	-1.8562968
13	0x3f6b2dba	0.9186665
14	0xbde5a29b	-0.11212655
15	0xbf2fa225	-0.6860679
16	0xbfe3905a	-1.7778428
17	0x3fb0f93e	1.3826063
18	0xbff6852f	-1.9259394
19	0xbfd7007c	-1.6797023
20	0x3f6d52e2	0.92704594
21	0x3f31e653	0.6949207
22	0x3f434992	0.76284134
23	0x3d160120	0.036622167
24	0x3f34b876	0.70593965
25	0xbedf028d	-0.43556634
26	0xc01c1f19	-2.439398
27	0x3ee872fc	0.45400226
28	0x3fb2cfb5	1.3969637
29	0x3f8b441d	1.0880162
30	0x3f0db8df	0.55360216
31	0xbf770d65	-0.96504813
32	0x3ebb43d3	0.36575183
33	0x3f0a5341	0.54033285
34	0xbed61cfe	-0.41818994
35	0x3f91d47e	1.1392972
36	0xbf36ea71	-0.7145148
37	0x3f3f772e	0.7479123
38	0xbfaf3039	-1.3686591
39	0x3ef94bb6	0.48690575
