model/point_history_classifier/point_history_classifier.tflite (tflite, 6352 bytes, 6 tensors)

sequential_4/dense_12/BiasAdd/ReadVariableOp/resource f4 [24]
00000000: cef4 8fbc e69b 29be 5c8d bfbd a5e2 0cbd
00000010: 1bb4 36be 60ca 02bd de12 37bd 3a59 ea3d
00000020: c71f c5bd 8ec0 39bd 44e2 fabd 38eb ccbd
00000030: f95a 04be 53e6 c8bd 5c15 54bd 455b 1cbe
00000040: 3ee5 07be bf11 813e e7e0 ffbd 5c9a dcbd
00000050: 4d3f 45bd 2abd 08be 9887 e5bd e559 26be
-0.017572787 -0.16563377 -0.09353134 -0.034395833 -0.17842142 -0.03193128 -0.044695728 0.114428
-0.09625202 -0.04534965 -0.12250188 -0.10005802 -0.12925328 -0.09809556 -0.051778182 -0.15269192
-0.13271043 0.25208852 -0.124940686 -0.10771629 -0.04815607 -0.1335341 -0.11207503 -0.1624523

sequential_4/dense_13/BiasAdd/ReadVariableOp/resource f4 [10]
00000000: 6d29 b13f 70cb 5c3f e880 023f 38d7 233f
00000010: b54b b73f 9167 413f 68e5 e2be 190b 553f
00000020: 8593 e83d 3e33 003c
1.3840767 0.8624792 0.50977945 0.6400027 1.4319979 0.75548655 -0.44315648 0.8322006
0.11356262 0.007824717

sequential_4/dense_14/BiasAdd/ReadVariableOp/resource f4 [5]
00000000: f3d8 c23d c902 533e 3347 c03e 1cb8 4cbd
00000010: 9d03 f8be
0.09514036 0.20606531 0.3755432 -0.049980268 -0.48440257

sequential_4/dense_12/MatMul f4 [24, 32]
00000000: 8a30 23be 8ea3 c4bd e941 3f3e 2dcf ddbd
00000010: 321c fa3e 2bef d3be 79a6 163f 95b0 7dbf
00000020: 7d63 623f 1a04 a7bf ab5e 6d3f edd8 a9bf
00000030: e0c9 353f f179 9fbf 3aaf e63e 2dd7 73bf
00000040: 1a45 dd3c fc94 02bf 12a8 aebd 0aa7 84be
00000050: 27cf bdbe 8b9c 463e 2edd 94be 8fa9 d23e
00000060: 2825 98be f2f0 203f b54d b9be 4985 f83e
00000070: e544 27be f111 d93e 7e29 dbbd 86d3 b33e
00000080: 64c5 19be d8ba 083d 77af 36bf 4ccf 8fbf
00000090: d41c 22bf 3384 62bf 07e0 c9bd 3ba6 35bf
000000a0: 19e8 d8bd 1b7c 4ebf 67a3 a43d 0c0f 14bf
000000b0: be52 df3e c106 04bf 1abf 723f 923f 3cbe
000000c0: 9494 583f 1651 20bd 8f2d 3b3f 385b 193e
000000d0: e44d 1d3f e28a d53d e018 1a3f 5859 e63e
000000e0: 2a6e cc3e 583a a93e da42 9b3c 9507 f23e
000000f0: 8016 65be cdea 153f cbfe 99bf e15a 4ebe
00000100: 50a0 8d3d e2c6 a3bd 0604 1c3f 669b 663f
00000110: 3d1f 8d3f 33ce 603f 859a 8b3f d8c8 3b3f
00000120: 48dc ac3f b240 d73e fa47 843f a4a0 30bb
00000130: a556 633f 3dcd 83be 483d 283f cacf ebbe
00000140: d26a 8dbb f4a9 15bf c2a4 84be 049b 09bf
00000150: 8793 d4be b1b5 ecbe 3f60 04bf 1f70 9fbe
00000160: 2c20 9abe d620 26be 3f4e f7be 4cb6 14be
00000170: ba1c cbbe da3e 503b 91a0 183e bb09 6e3e
00000180: ac68 3c3e 68e0 7d3e e63f 84bf c592 abbf
00000190: 47fd 88bf fb66 53bf 25d3 72bf 2c9d 0dbf
000001a0: 6ed2 48bf b40b c9be 60ee 6fbf b1d8 e4be
000001b0: 63e1 14bf 930b 76be 5970 13bf 0374 8abb
000001c0: f045 f5be 604d 32bd c2f3 37be c149 a73c
000001d0: 1f62 a33b 0b2f 613e 5aa9 753e 1286 b23e
000001e0: 5b18 7fbe 5e19 a33e fec4 e2be 6a05 b23e
000001f0: 092a f3be 44bf 333f c637 88bf 1af4 333f
00000200: 3432 163e c2b2 52be 825e d9be 73ec cbbf
00000210: d577 e1bd 3d2c a7bf f6e6 4fbf a791 84bf
00000220: 24fa 9cbf 937a 2bbf fb92 a5bf 74ad 6dbe
00000230: f866 85bf 0698 9b3e a3ec 0fbf 6dfd f93e
00000240: b316 eabe 2ae0 193f 3cfb 6a3d f2f8 193f
00000250: 1291 073f 0a31 183f 8c84 c23e ecf7 d93e
00000260: b6d7 193f ed4c 6c3e 4a63 1c3f 7b9f 5b3c
00000270: e1d0 c63e 4a63 31be 2285 6ebd f0bd 0ebf
00000280: ca03 53be 0f03 99be 47d5 823e 2685 eabe
00000290: 4f24 723d 5e2b 56be 8c62 e2bd 75bf 83be
000002a0: cafe 433d 7f56 a3bc 6ec3 983d 2445 313a
000002b0: ea17 c53b 5c77 87bd 82dc aa3d ce98 91bd
000002c0: 7702 873e 1cc7 a5ba 794b 553e 5e0a a8be
000002d0: f39b 943e 917e b3be e3cb 9f3e a8f0 dabe
000002e0: 7e5b d83e e673 19bf 1aa5 073f a08f 37bf
000002f0: 9943 5d3f 1702 56bf 7926 453f 34c6 95bf
00000300: 88d3 583e c6e4 023e 581e 4d3e 7c16 843f
00000310: 4fba 543f 55ef 953f f6a0 9a3f b2fa 813f
00000320: dda9 903f cdac 5d3f dedd a23f 5198 1a3f
00000330: c5dc 873f 7775 a33e be06 4b3f 7031 a53d
00000340: dbbc 3a3f c4f7 06be 8784 0d3f 28e7 6bbe
00000350: 07c8 823e 9714 4dbe 6a9b 283e f67b eabe
00000360: ffe7 9abe 553d 2dbf e1e1 3f3e 95db 59bf
00000370: cb4c bf3e 7a95 42bf 75d0 b3bd 3a5c 87bf
00000380: d01d 613e fe83 79be 652e 193e 4e41 f43e
00000390: 3f52 b03c da26 343f d0cb 34bb a0f1 713f
000003a0: 32d3 99be 110c b73f 432b dcbe 6078 883f
000003b0: c68c 6dbf fae9 cf3f 5d99 86bf 5bef ad3f
000003c0: 125d 81bf c9b7 953f 2c44 4bbf bb33 6f3f
000003d0: 5aaa 38bf f6c8 563f 1c02 02bf b2bf e43e
000003e0: bb28 d7be 7023 bf3c 64ee 20be 3c6b 8cbe
000003f0: 8044 793e 1978 4dbf 985b 1a3e 9ac2 30bf
-0.15936485 -0.09601508 0.18677486 -0.10830531 0.48849636 -0.41393408 0.5884777 -0.9909757
0.8843306 -1.3048127 0.92722577 -1.3269325 0.7101116 -1.2459089 0.45055562 -0.9525021
0.02701049 -0.5100858 -0.085281506 -0.2590869 -0.37072107 0.19395654 -0.29074997 0.41144988
-0.29715848 0.62867653 -0.36192098 0.48539189 -0.16334875 0.423965 -0.107012734 0.35122317
-0.15016705 0.033381313 -0.7136149 -1.1235137 -0.6332524 -0.8848297 -0.09857183 -0.7095677
-0.10591144 -0.8065812 0.08038979 -0.5783546 0.43617815 -0.51572806 0.9482285 -0.18383625
0.8460171 -0.03913983 0.7311639 0.14976203 0.61446977 0.104268804 0.60194206 0.4499004
0.39927799 0.33052325 0.018952776 0.4727141 -0.22371864 0.585614 -1.2030882 -0.20151855
0.06915343 -0.07996918 0.6094364 0.9008087 1.1025158 0.87814635 1.0906531 0.7335334
1.3504725 0.42041546 1.0334466 -0.0026951218 0.88804084 -0.25742522 0.6571851 -0.46056968
-0.0043157125 -0.5846245 -0.2590695 -0.5375216 -0.41518804 -0.4623237 -0.5170936 -0.3114023
-0.3010267 -0.16223463 -0.48301885 -0.14522666 -0.39670354 0.0031775744 0.14905001 0.232459
0.18399304 0.24792635 -1.0332 -1.3404166 -1.0702294 -0.8257901 -0.9485343 -0.5531795
-0.7844609 -0.3926674 -0.93723106 -0.44696572 -0.5815641 -0.24027853 -0.57593304 -0.0042252555
-0.4790492 -0.04353082 -0.1796408 0.02042091 0.004986062 0.21990602 0.23990384 0.34867913
-0.24911635 0.3185529 -0.44290918 0.34769756 -0.47493008 0.70213723 -1.0642021 0.70294344
0.14667588 -0.20576003 -0.42454916 -1.5931534 -0.11009184 -1.3060375 -0.81211793 -1.035695
-1.2263837 -0.6698391 -1.293548 -0.23210698 -1.0422049 0.30389422 -0.56220454 0.4882616
-0.45720443 0.6010767 0.057368502 0.60145485 0.52955735 0.5944983 0.3799175 0.42571962
0.60094774 0.2307622 0.61089003 0.013404722 0.38831237 -0.17323032 -0.058232434 -0.5575857
-0.20606914 -0.29885146 0.25553343 -0.4580471 0.059116658 -0.20914981 -0.110539526 -0.25732008
0.047850408 -0.019938705 0.0745915 0.0006762317 0.0060148137 -0.06614563 0.0834284 -0.07109223
0.26369068 -0.001264784 0.20829572 -0.3282041 0.2902523 -0.350575 0.3121024 -0.4276173
0.42257303 -0.5994247 0.529863 -0.7170353 0.8643127 -0.8359694 0.7701183 -1.1701112
0.21174443 0.12782583 0.20031106 1.0319362 0.83096784 1.1713663 1.2080371 1.0154631
1.1301838 0.865918 1.2723958 0.60388666 1.0614249 0.31925556 0.7930716 0.0806607
0.7294442 -0.13180453 0.55280346 -0.23037398 0.25543234 -0.20027386 0.16465536 -0.457977
-0.30255124 -0.6767171 0.1873851 -0.8510068 0.37363276 -0.76009333 -0.087799944 -1.057502
0.21984029 -0.24366757 0.14959104 0.47706074 0.021523593 0.7037178 -0.0027587302 0.94509315
-0.30043942 1.4300557 -0.43001756 1.0661736 -0.9279293 1.6243279 -1.0515553 1.358867
-1.0106528 1.1696712 -0.794009 0.9343831 -0.72134936 0.8390039 -0.5078447 0.44677502
-0.42023262 0.023332328 -0.15715939 -0.27425563 0.24342537 -0.8026138 0.15074003 -0.6904694

sequential_4/dense_13/MatMul f4 [10, 24]
00000000: 6eff 08bf 0330 c2be b7fd 77bf b036 6ebe
00000010: 5482 b9bf e112 3d3e fe57 3bbe fadd 29be
00000020: 5ca7 32be 3107 65be 2956 85be b80c cbbf
00000030: f987 19bf 6516 d9bf e990 ad3e 2953 75be
00000040: 270b 0cbe dd4d b03e 6b54 80bd 1a45 58be
00000050: 8e0a 14be eda8 34bf 05ed 8fbd 5d2f 5abe
00000060: da94 4bbf 26f6 4fbf 4ec6 30c0 c1b5 0dbf
00000070: 0883 b3bf 579a 91bf 0e77 87c0 2996 a1bc
00000080: 9adc 76bf 76e2 85bf e02b 5fbf 2ac0 25c0
00000090: 8de4 84bf b306 27c0 5e8d 183e 8782 8cbf
000000a0: 39fe 00bf 2dcb 263e fa9f 4e3f 7788 6abf
000000b0: 7a81 1ac0 1ce1 dcbf 8f18 293f 67b8 f2be
000000c0: e21d 8e3e c311 413f d444 babe 8f79 883e
000000d0: 7235 84bf 6e6c 8a3e f309 96bc 532c 123f
000000e0: 9235 023f 99df 343f e47d 1a3f a919 a6be
000000f0: 265e 80bf 86f6 b3bf f6dc ac3e 3065 f83e
00000100: 36c6 823f 6e86 8c3e aabb 3ebf 0ec4 31bf
00000110: 7127 613e d888 6fbf 974b 9abe ab61 6b3f
00000120: 1f34 c63f 7901 803f e51d 623f b511 333f
00000130: a35f 253e bff5 863f 9c97 573f 4342 18c0
00000140: 2bcf f63e edb6 5c3f 5dc4 8d3f 9763 073f
00000150: d2da d53e 9963 2a3f 8ff4 6a3f f94b 093f
00000160: 16ac cc3e ed22 5f3d c5a7 be3e 5b52 8f3e
00000170: 9258 113f ba99 cc3e 5805 7d3d 0bdf 813f
00000180: f22a a43d e714 10c0 68b5 053e cd77 d9bd
00000190: 9892 cfbb 34f9 51be e9ae 603d 34c6 d8bd
000001a0: 4cdc 99bf 0b3c 94bf 27a8 ddbf 87c0 493e
000001b0: a9f0 573e 8788 ae3d 08a7 4bbe 82d0 e0bf
000001c0: 3c0b c1bf 041f 023f ce87 3dbf 5324 43bd
000001d0: 7176 83be 3394 6e3d b038 6ebf 41ec ecbf
000001e0: 2f56 b83e c5d7 133f 7b9f 64bf 4151 16bf
000001f0: f1fb eebf 8d81 5dbe aa81 15bf 42d5 2fbc
00000200: 9b4a 61bd 3b50 3e3e 2d93 593e 1cb8 a2bf
00000210: 5b33 08c0 a36d a9be 81c1 1d3e 2f87 f83e
00000220: 41b3 253d bdf2 803e f80c 32c0 1e3a c9bf
00000230: c3cc 9bbf 2126 18c0 34dc a9bf 6c0a b63e
00000240: 5353 773e b389 253f 5f49 0a3f 36ec b43e
00000250: 2b64 c03e 792f bc3e 0f4a d93e fe68 37bc
00000260: 372a 8b3e 88aa fb3e 1363 383f 53de e33e
00000270: b840 333f 2d04 f93e 9c45 8b3e 6b87 5e3e
00000280: e037 983e ea89 7f3e 6c30 043f a41c 063f
00000290: eb9f c93e 5fff da3e 57fb 713e 4972 d83e
000002a0: 572a d43e 5df2 b0bd f84e 69be d586 813e
000002b0: 4ac1 29bd 041e ad3e e778 3cbd 8a6c 8e3f
000002c0: 69e1 743e c283 c73e b548 403e 2f43 71be
000002d0: 4a8d 18be 6d13 cabe 44d4 913e 1d54 23bc
000002e0: 3d9e 81bd c0f5 933e 7d77 3dbd cc03 1ebe
000002f0: 42b4 8e3d b8d7 033d 98de 5dbe a69c 1dbe
00000300: 091f 1b3f a9a8 2c3f 87df f63f af23 0140
00000310: 484f d63f 7ed5 893f 5d63 ae3f b58a 293f
00000320: 1546 fb3e e95b 4d3f ea84 493f a0b3 a33f
00000330: 590a e53f 35ad e93f ba4c 773f d7e4 3f3f
00000340: 3d84 8f3f 0a51 473e 0064 cf3f fe2b b93f
00000350: 07be c13f 3570 cf3f 48fe f03f 1923 4f3f
00000360: 1033 753f 2564 0dbf 371c a13e c26e 363f
00000370: c3ef e53e 281d 36be 90c8 1f3e 3871 983b
00000380: 57d0 393e e3d3 a83e 6f67 81bd 0255 433f
00000390: 16f1 d2be e58a 323f 6115 be3e 5e71 4d3e
000003a0: 4710 89be 2fab bbbb ccaa bb3d 4f99 22bf
000003b0: f80b 663e 6dca c23e d70b 973e 4000 323e
-0.53514755 -0.37927255 -0.96871513 -0.23263049 -1.4492898 0.18464233 -0.18295285 -0.16588584
-0.17446655 -0.22366025 -0.26042297 -1.5863256 -0.599731 -1.6959959 0.3389962 -0.23957504
-0.1367613 0.34434405 -0.062661014 -0.2112011 -0.14457151 -0.7057026 -0.0702763 -0.2130713
-0.79524004 -0.8123497 -2.7621036 -0.5535546 -1.4024363 -1.1375226 -4.233283 -0.019724922
-0.9643036 -1.0459735 -0.8717632 -2.5898538 -1.0382248 -2.609784 0.14897677 -1.0977334
-0.50387913 0.16288443 0.80712855 -0.9161448 -2.4141526 -1.7256198 0.660531 -0.47406313
0.27757174 0.7541773 -0.36380637 0.26655242 -1.032881 0.2703585 -0.018315291 0.57098883
0.5086299 0.7065368 0.60348344 -0.32441452 -1.0028732 -1.4059608 0.3376233 0.485147
1.0216739 0.27446312 -0.745051 -0.6943978 0.21987702 -0.9356818 -0.30135795 0.91945904
1.5484656 1.000045 0.88326865 0.69948894 0.16149764 1.0543746 0.8421571 -2.3790443
0.48204932 0.8621662 1.107555 0.5288634 0.4176851 0.66558224 0.91779417 0.5363155
0.3997504 0.054476667 0.37237373 0.2799252 0.5677577 0.39961034 0.061772674 1.0146192
0.08016004 -2.2512758 0.13057482 -0.10618553 -0.006334614 -0.2050522 0.054854307 -0.10584679
-1.2020354 -1.1580824 -1.7316941 0.1970235 0.21087898 0.08522134 -0.19887936 -1.7563632
-1.5081553 0.50828576 -0.74035347 -0.047642063 -0.256763 0.058246803 -0.9305525 -1.8509599
0.36003253 0.57751113 -0.8930585 -0.58717734 -1.8670636 -0.21631451 -0.58400977 -0.010731997
-0.05500279 0.18585293 0.2124755 -1.2712436 -2.1281345 -0.3309146 0.15405847 0.48540637
0.040454153 0.25185195 -2.7820415 -1.5720861 -1.2171863 -2.3773272 -1.3270326 0.35554826
0.2415288 0.6466324 0.54018205 0.35336465 0.37576422 0.3675497 0.42439315 -0.011194466
0.27180645 0.49153543 0.72026175 0.44505557 0.7002063 0.48635998 0.27201545 0.21731345
0.2973013 0.24954954 0.51636386 0.5238745 0.3937982 0.42772958 0.23631035 0.42274693
0.41438553 -0.08639977 -0.2278403 0.2529818 -0.0414441 0.33811963 -0.04601374 1.1126873
0.23914112 0.3896771 0.18777736 -0.23560785 -0.14897648 -0.39467946 0.28482258 -0.009968785
-0.0632901 0.2889843 -0.04625653 -0.15431136 0.06967975 0.032188147 -0.21666944 -0.15391788
0.6059423 0.67444855 1.9286965 2.017803 1.6742945 1.0768278 1.3624073 0.66227275
0.49076906 0.8021837 0.78718436 1.2789192 1.7893783 1.8255984 0.9660145 0.74958557
1.1212231 0.19464508 1.6202393 1.446655 1.5136117 1.6206118 1.88276 0.8091293
0.9578104 -0.55230933 0.3146684 0.71262753 0.44909486 -0.1778456 0.15603852 0.0046521686
0.18145882 0.32974157 -0.063185565 0.76301587 -0.4119956 0.69743186 0.37125686 0.20062777
-0.2677023 -0.005727194 0.09163436 -0.6351518 0.22465503 0.38045064 0.2950122 0.17382908

sequential_4/dense_14/MatMul f4 [5, 10]
00000000: 27f0 173f 4f17 2c40 307e febf 2600 6fc0
00000010: d70b c03f e9a9 f53f 63b5 e23c 5c5e b4bf
00000020: 06e5 a9c0 6498 bcc0 833d 283f f9fb 14c0
00000030: e8cc 823f 6253 923f abc8 09c0 cd06 2c3f
00000040: 3280 96bf 0bcd 4c3f 4a88 ccbe 11dc a7be
00000050: 6d9a b6bf bd45 b0bf 4ed7 a9bf 20c8 103f
00000060: 5417 983f c92b a0bf a845 52bf a457 023f
00000070: 875c 723f 2387 ca3e 16ec d63f 8d8d 0abf
00000080: 28af febe 6f76 f03e b4b9 bbbf 3b25 a7bf
00000090: 4beb 84be fe25 1e3d c595 883f d63e 833e
000000a0: 878b 2cbf 40d8 953f a2fe 88bd 6d25 03bd
000000b0: ebf1 e4be 3799 343f a92b 973f b7e0 58bf
000000c0: 7e4c 5c3f da25 733f
0.5935082 2.6889226 -1.9882259 -3.734384 1.5003613 1.9192477 0.027674383 -1.4091296
-5.309207 -5.8936024 0.6571886 -2.3278792 1.0218782 1.1431696 -2.1528728 0.6719788
-1.1757872 0.8000037 -0.3994773 -0.32785085 -1.4265877 -1.3771282 -1.3268831 0.56555367
1.1882119 -1.2513362 -0.82137537 0.5091498 0.94672436 0.39556226 1.6790798 -0.5412224
-0.4974301 0.46965358 -1.4666047 -1.3058237 -0.25960764 0.03861045 1.0670706 0.25633878
-0.674004 1.1706619 -0.06689192 -0.032018114 -0.4471582 0.7054629 1.1810199 -0.8471789
0.8605422 0.9497963
