model/point_history_classifier/point_history_classifier.tflite (tflite, 6400 bytes, 6 tensors)

sequential_7/dense_21/BiasAdd/ReadVariableOp/resource f4 [24]
-0.08272342 -0.023621636 -0.15371932 -0.1703719 -0.072575055 -0.023820987 -0.041334253 -0.11497248
-0.06329418 -0.037628487 -0.033781607 0.2580157 -0.04240898 -0.12963821 -0.014747257 -0.11124743
-0.14734243 -0.17663038 -0.032120205 -0.18495505 -0.13906494 -0.059052072 -0.047885563 -0.18906312
00000000: e56a a9bd 2982 c1bc 9968 1dbe f975 2ebe
00000010: 3ba2 94bd 3b24 c3bc 1b4e 29bd b176 ebbd
00000020: 61a0 81bd 5420 1abd 955e 0abd a21a 843e
00000030: 0ab5 2dbd e1bf 04be 7b9e 71bc b1d5 e3bd
00000040: efe0 16be 98de 34be 7a90 03bd db64 3dbe
00000050: 0a67 0ebe 96e0 71bd a723 44bd c399 41be

sequential_7/dense_22/BiasAdd/ReadVariableOp/resource f4 [10]
-0.001887273 0.0028753597 0.13775921 0.23885354 -1.2958633 -0.56874615 -0.060592957 1.2518629
-0.88524765 1.4703057
00000000: 605e f7ba 8870 3c3b c010 0d3e 0696 743e
00000010: d9de a5bf 5999 11bf 5230 78bd 0b3d a03f
00000020: 979f 62bf fa32 bc3f

sequential_7/dense_23/BiasAdd/ReadVariableOp/resource f4 [6]
0.56783026 0.37493283 0.4889817 -0.19665614 -0.98844475 -0.46302664
00000000: 535d 113f 32f7 bf3e cf5b fa3e 3a60 49be
00000010: b70a 7dbf d411 edbe

sequential_7/dense_21/MatMul f4 [24, 32]
-0.31714845 -0.04732895 -0.32437903 0.32995328 -1.1624477 0.11977225 -1.2966267 0.33217785
-1.6179863 0.4089743 -1.5366119 0.5869764 -1.3209829 0.6408695 -1.1986505 0.5784869
-0.51523143 0.31304574 -0.10824269 0.1631556 0.21095203 -0.088403046 0.6452672 -0.36659664
0.8164211 -0.36628488 0.75243896 -0.37258717 0.55197597 -0.34486434 0.26069784 -0.13002573
0.1480906 0.042063296 0.5385174 -0.15069786 0.39657125 -0.3443441 0.36173135 -0.2971463
0.41207185 0.00050796353 0.31698388 0.266276 0.17266425 0.4109933 0.4201411 0.58933896
0.3878937 0.43970615 0.3138195 0.41716763 0.18534616 0.2295599 0.22015795 0.028559742
0.27907807 -0.2852697 0.5279561 -0.65136945 0.6200169 -1.2876097 1.414244 -1.823305
-0.27262914 0.3272524 -0.4289997 -0.9118904 -1.3162665 -0.9523218 -0.9994546 -0.8706609
-1.2078491 -0.5826917 -1.2511158 -0.33286938 -0.8066785 -0.32925197 -0.60646844 -0.1500405
-0.2866788 0.08118071 -0.08926872 0.29427505 0.0073503465 0.28964463 0.031238217 0.30899954
-0.16064611 0.3336118 -0.37708184 0.4148004 -0.5787571 0.6107948 -1.1312772 0.6922763
0.07951218 -0.13697432 0.7887093 -0.92986685 0.84809774 -1.4613473 0.4811607 -1.1575425
-0.117111005 -1.0074735 -0.39421085 -0.72193396 -0.6827723 -0.5269426 -0.6825359 -0.40895328
-0.7105575 -0.22466232 -0.6624 -0.119739905 -0.7432219 0.17919038 -0.6325856 0.34530747
-0.46623588 0.33403772 -0.5130337 0.29894602 -0.626157 0.44264814 -0.8346125 0.27964288
0.23097795 -0.24280897 0.29376104 -0.41977748 -0.23419322 -0.59121764 0.10547222 0.0009935468
0.34151617 -0.19803485 -0.16792622 -0.36848965 0.38845098 -0.08316248 -0.20399389 -0.45695922
0.44529676 -0.046018444 0.28561562 -0.11726845 0.9809301 0.014594474 1.0818152 -0.047708046
0.9116152 0.14457476 0.86961824 0.27864927 1.2206712 0.43446565 1.639543 0.5516567
-0.011210859 0.30934942 0.5386167 -1.034063 0.6201439 -1.0516331 1.3208671 -0.8442302
1.3544683 -0.40856633 1.6366286 -0.03313442 1.4753687 -0.11471005 1.2418286 0.25834474
0.5588167 0.15316877 0.767745 0.38126916 0.10143098 0.40131396 -0.14176849 0.37158254
-0.23480265 0.42382336 -0.8425515 0.22515927 -0.7970508 -0.20804343 -1.301163 -0.57788026
-0.28123125 0.28513741 2.0741258 0.109917745 2.1842608 0.29678148 1.7305261 0.15150289
1.0029379 0.12232578 0.6470465 0.18214399 0.35170883 0.4360888 0.011579805 0.70315856
-0.30720407 0.6580456 -0.40340003 0.7269622 -0.4626696 0.47660437 -0.61087364 0.43985224
-0.67529124 0.09166591 -1.0647484 0.06049829 -0.65661055 -0.122622184 -0.8668646 0.09513661
0.20925283 0.30730474 0.5838736 -0.16992041 1.6431192 -0.11648344 1.4296805 -0.40638882
1.0103829 -0.23549232 0.5859791 -0.5244969 0.08372037 -0.41743523 -0.6291413 -0.46030316
-1.050644 -0.31141955 -1.0912372 -0.20310934 -1.2027509 -0.056618854 -0.82070506 0.16819596
-0.4567976 0.2750575 0.29078767 0.45286727 0.665792 0.32619986 1.3873558 0.3253932
00000000: 4861 a2be 00dc 41bd 0215 a6be a3ef a83e
00000010: 16cb 94bf 274b f53d ddf7 a5bf 3713 aa3e
00000020: 2d1a cfbf 1465 d13e b3af c4bf 1644 163f
00000030: f815 a9bf 0610 243f 616d 99bf b817 143f
00000040: 35e6 03bf 8847 a03e 58ae ddbd 4312 273e
00000050: cf03 583e a80c b5bd 3b30 253f 8eb2 bbbe
00000060: f900 513f b189 bbbe d79f 403f bfc3 bebe
00000070: 4c4e 0d3f 0f92 b0be 307a 853e 7725 05be
00000080: 10a5 173e 904a 2c3d 47dc 093f 8a50 1abe
00000090: 630b cb3e df4d b0be da34 b93e 8f23 98be
000000a0: 15fb d23e db28 053a b64b a23e 5455 883e
000000b0: e6ce 303e b76d d23e bc1c d73e ebde 163f
000000c0: 019a c63e 2a21 e13e f3ac a03e ff96 d53e
000000d0: 62cb 3d3e c011 6b3e 1671 613e 1ff6 e93c
000000e0: 52e3 8e3e df0e 92be 2228 073f 26c0 26bf
000000f0: 6db9 1e3f 65d0 a4bf f305 b53f 0f62 e9bf
00000100: 0c96 8bbe a08d a73e d9a5 dbbe a671 69bf
00000110: 6c7b a8bf 5dcb 73bf 42dc 7fbf a2e3 5ebf
00000120: cd9a 9abf 492b 15bf 9024 a0bf db6d aabe
00000130: 7b82 4ebf b793 a8be 8441 1bbf 38a4 19be
00000140: 90c7 92be 1242 a63d 85d2 b6bd 38ab 963e
00000150: 2ddb f03b 4d4c 943e 4ae7 ff3c 3035 9e3e
00000160: 6a80 24be 2acf aa3e df10 c1be b860 d43e
00000170: 6d29 14bf 0c5d 1c3f b1cd 90bf 0539 313f
00000180: 48d7 a23d ff42 0cbe dae8 493f c10b 6ebf
00000190: ef1c 593f 6e0d bbbf b25a f63e 5a2a 94bf
000001a0: e5d7 efbd e4f4 80bf 01d6 c9be aad0 38bf
000001b0: 2aca 2ebf b6e5 06bf acba 2ebf 5362 d1be
000001c0: 19e7 35bf e10d 66be 0c93 29bf 323a f5bd
000001d0: ca43 3ebf af7d 373e 21f1 21bf 24cc b03e
000001e0: 78b6 eebe fe06 ab3e 2d56 03bf 740f 993e
000001f0: d34b 20bf c7a2 e23e 2aa9 55bf 5a2d 8f3e
00000200: 7c85 6c3e eaa2 78be d967 963e 13ed d6be
00000210: 59d0 6fbe 0a5a 17bf d201 d83d e639 823a
00000220: 35db ae3e a6c9 4abe daf4 2bbe adaa bcbe
00000230: 0ce3 c63e 1751 aabd c6e3 50be 8ff6 e9be
00000240: f0fd e33e d67d 3cbd 363c 923e 712a f0bd
00000250: 3c1e 7b3f a91d 6f3c ec78 8a3f 8369 43bd
00000260: 9d5f 693f 680b 143e 4d9f 5e3f 1eab 8e3e
00000270: f43e 9c3f 4872 de3e 8cdc d13f 6039 0d3f
00000280: c0ad 37bc 0c63 9e3e c9e2 093f 2d5c 84bf
00000290: c0c1 1e3f ea9b 86bf 2c12 a93f 781f 58bf
000002a0: 385f ad3f 9b2f d1be 0c7d d13f f5b7 07bd
000002b0: e2d8 bc3f 1aed eabd 3df4 9e3f c345 843e
000002c0: 9c0e 0f3f 46d8 1c3e f08a 443f b635 c33e
000002d0: 0cbb cf3d 0679 cd3e c22b 11be 1140 be3e
000002e0: 1b70 70be 60ff d83e 75b1 57bf 2790 663e
000002f0: 850b 4cbf 5609 55be 828c a6bf f6ef 13bf
00000300: 8bfd 8fbe 88fd 913e 7abe 0440 8e1c e13d
00000310: eeca 0b40 bef3 973e e181 dd3f 9323 1b3e
00000320: 4560 803f f085 fa3d d7a4 253f f483 3a3e
00000330: 2e13 b43e 0847 df3e 39b9 3d3c 3302 343f
00000340: da49 9dbe ad75 283f 738a cebe 321a 3a3f
00000350: 08e3 ecbe 7d05 f43e 3762 1cbf 5034 e13e
00000360: e3df 2cbf 56bb bb3d ad49 88bf 0ecd 773d
00000370: a117 28bf 5721 fbbd d7ea 5dbf fcd6 c23d
00000380: 6046 563e 0c57 9d3e be78 153f 9eff 2dbe
00000390: bb51 d23f df8e eebd c5ff b63f 3212 d0be
000003a0: 3a54 813f e624 71be ba02 163f 6e45 06bf
000003b0: 9675 ab3d 12ba d5be 670f 21bf dbac ebbe
000003c0: 817b 86bf 6272 9fbe a9ad 8bbf e5fb 4fbe
000003d0: bef3 99bf 2ce9 67bd ba19 52bf 903b 2c3e
000003e0: 60e1 e9be 56d4 8c3e 1fe2 943e 38de e73e
000003f0: 5871 2a3f ab03 a73e e094 b13f f099 a63e

sequential_7/dense_22/MatMul f4 [10, 24]
0.1799809 0.270281 -0.16474271 -0.10286945 0.5481768 -1.3140271 1.0270472 0.12944013
-0.16511305 -0.8341211 0.4470753 -0.0044586067 0.9198558 -0.048948314 0.8120663 0.4855788
-0.23369756 0.76308835 -0.82849437 -0.14475432 -0.098503955 -1.1709801 -0.2573069 -0.08041103
0.84999067 0.9224109 0.24929406 -0.14795853 0.88858694 1.8012753 1.3764546 -0.45056194
0.93465185 1.8345511 0.7702851 0.1688264 1.121119 -0.83842015 1.0947576 1.7230519
-0.28077498 1.801173 1.9151253 -1.1623764 -0.5404185 1.7966022 1.3193529 -0.6265716
1.84697 1.3416797 0.8605772 0.4781251 0.3027538 1.2643619 1.0300782 1.1932957
0.97444814 0.5345423 1.0886512 -0.24577488 1.0923835 1.2474372 1.489366 0.5074669
0.20019239 0.16061708 0.5209311 0.29391807 0.8425118 0.22454152 0.79242635 0.856389
-0.24271941 1.086441 0.9199995 0.5481809 0.5398507 0.081696704 0.8759388 0.060287252
0.8312126 0.6258007 1.3877335 0.14263396 0.8640367 0.32757533 0.15530302 0.70746523
0.89697504 0.18242738 0.60070366 0.41377947 0.44423947 0.29768583 0.7659144 0.5641092
0.26728466 -0.16417406 -0.09736304 0.14384438 0.046798818 0.43120775 0.267889 0.5674374
-0.121404566 0.06394319 -0.13694768 0.3227242 0.3326487 0.5725042 0.56171477 0.45023784
-0.010986905 0.35348243 0.20494986 0.18328547 0.7468156 0.20265412 0.13845389 0.19277455
0.30107063 0.22022653 0.39160204 0.38792315 0.19773753 -0.23158129 -0.058698844 0.46646455
-0.14212565 0.09023908 0.115423664 0.3123347 -0.009024359 0.07298575 -0.7009529 0.119049214
0.61425227 -0.19957006 -0.4682844 0.31550655 0.40537512 0.21685112 -0.00986132 0.11117789
0.17134349 1.1353694 1.1369882 0.9028883 0.36379758 0.03761358 0.24339774 1.0867817
0.35841584 0.053182542 0.33010828 -0.7228709 0.19498703 1.2870473 0.17423323 0.04257123
0.99471337 0.35241428 -0.034474332 1.2710794 1.5223616 0.18265797 0.55538046 1.5748318
0.41711867 0.16507193 0.2063252 0.42879045 -0.0021251726 -0.13113284 -0.15906367 0.3815264
-0.14465103 -0.00034793981 0.4123705 0.54711556 0.031799216 -0.10094807 -0.07507208 0.00557972
0.2933701 -0.115998395 -0.30392814 -0.10788673 0.04786065 -0.20112456 -0.110884696 -0.14701703
0.067276314 -0.26707828 0.37439603 0.731483 -0.05377191 0.52423835 0.38446596 0.6649279
-0.491969 0.29450995 0.3042296 1.4199538 0.53426194 0.44515598 0.32414404 0.5221324
0.75178653 -0.50638515 0.7164728 0.16808271 0.27253336 -0.1510649 -0.21157539 -0.20570171
-1.1425781 -0.049427126 -1.5533905 -1.2560905 -1.8580786 -1.2242687 -0.39260954 -2.4930336
-0.35562313 0.018515225 0.14798005 0.117321394 -0.16850331 -0.98027223 -0.9255937 -0.59518856
-1.3948114 -1.6223649 -0.62522733 -2.1368585 -0.77351373 -0.675289 -0.016133405 -1.003823
00000000: ea4c 383e 4562 8a3e 50b2 28be 38ad d2bd
00000010: 5155 0c3f 0a32 a8bf 4876 833f f48b 043e
00000020: 6513 29be f688 55bf 0ee7 e43e 8119 92bb
00000030: ab7b 6b3f 077e 48bd 94e3 4f3f c99d f83e
00000040: 6a4e 6fbe c259 433f 3518 54bf 7a3a 14be
00000050: 71bc c9bd ade2 95bf bbbd 83be 8aae a4bd
00000060: fd98 593f 1f23 6c3f f146 7f3e 7182 17be
00000070: 6f7a 633f 3090 e63f aa2f b03f 0eb0 e6be
00000080: 5845 6f3f 92d2 ea3f 6831 453f d4e0 2c3e
00000090: d480 8f3f b4a2 56bf 0421 8c3f f78c dc3f
000000a0: bdc1 8fbe d68c e63f d322 f53f c0c8 94bf
000000b0: de58 0abf 10f7 e53f 8ee0 a83f ff66 20bf
000000c0: 8369 ec3f 29bc ab3f ca4e 5c3f d0cc f43e
000000d0: 8c02 9b3e 9cd6 a13f 9ad9 833f eabd 983f
000000e0: 6f75 793f c4d7 083f ec58 8b3f 69ac 7bbe
000000f0: 39d3 8b3f 06ac 9f3f 8ca3 be3f 5ae9 013f
00000100: 3cff 4c3e ce78 243e be5b 053f 6e7c 963e
00000110: daae 573f 36ee 653e 74dc 4a3f 4f3c 5b3f
00000120: 708b 78be 8010 8b3f 1685 6b3f 9555 0c3f
00000130: a833 0a3f 9a50 a73d 863d 603f c4ef 763d
00000140: 59ca 543f 7a34 203f 40a1 b13f a30e 123e
00000150: 8231 5d3f f4b7 a73e c107 1f3e 711c 353f
00000160: 28a0 653f 3ece 3a3e b7c7 193f e7da d33e
00000170: 5b73 e33e 476a 983e f712 443f 7669 103f
00000180: 89d9 883e 3f1d 28be 4666 c7bd f14b 133e
00000190: 1eb0 3f3d 43c7 dc3e bf28 893e 9443 113f
000001a0: f5a2 f8bd a6f4 823d 033c 0cbe 1b3c a53e
000001b0: ee50 aa3e a38f 123f 8acc 0f3f 9385 e63e
000001c0: 6b02 34bc a6fb b43e 60de 513e 30af 3b3e
000001d0: 4f2f 3f3f 9084 4f3e dbc6 0d3e b166 453e
000001e0: ee25 9a3e 1083 613e 1080 c83e dd9d c63e
000001f0: b57b 4a3e a523 6dbe 336e 70bd 71d4 ee3e
00000200: 6389 11be 44cf b83d 3e63 ec3d 55ea 9f3e
00000210: e8da 13bc 8e79 953d a671 33bf 13d0 f33d
00000220: a33f 1d3f 185c 4cbe f9c2 efbe 138a a13e
00000230: 548d cf3e 380e 5e3e 6091 21bc 3cb1 e33d
00000240: ab74 2f3e c953 913f d488 913f b023 673f
00000250: ad43 ba3e b210 1a3d 423d 793e aa1b 8b3f
00000260: 4882 b73e f0d5 593d f403 a93e 110e 39bf
00000270: aeaa 473e f7bd a43f 326a 323e 2c5f 2e3d
00000280: 89a5 7e3f a56f b43e f534 0dbd bbb2 a23f
00000290: bfdc c23f b10a 3b3e 6a2d 0e3f 1794 c93f
000002a0: 9490 d53e 9e08 293e ea46 533e 6c8a db3e
000002b0: 7b46 0bbb b047 06be 96e1 22be 6e57 c33e
000002c0: 661f 14be b16b b6b9 3a22 d33e c40f 0c3f
000002d0: e53f 023d ddbd cebd 64bf 99bd 15d6 b63b
000002e0: 9b34 963e 9190 edbd 789c 9bbe b8f3 dcbd
000002f0: 8709 443d 99f3 4dbe 8417 e3bd a28b 16be
00000300: 2ac8 893d 7cbe 88be d6b0 bf3e 7842 3b3f
00000310: ef3f 5cbd 7c34 063f b9d8 c43e b738 2a3f
00000320: 5ce3 fbbe 02ca 963e fbc3 9b3e 0cc1 b53f
00000330: 64c5 083f 7ceb e33e 35f6 a53e 78aa 053f
00000340: 1575 403f 75a2 01bf c36a 373f e01d 2c3e
00000350: 7e89 8b3e c2b0 1abe 38a7 58be 78a3 52be
00000360: 0040 92bf 1974 4abd 80d5 c6bf 93c7 a0bf
00000370: 85d5 edbf d6b4 9cbf 1e04 c9be dd8d 1fc0
00000380: 3c14 b6be 3ead 973c 1588 173e 3346 f03d
00000390: 228c 2cbe 1ff3 7abf b5f3 6cbf 475e 18bf
000003a0: 2e89 b2bf a7a9 cfbf e60e 20bf 4ac2 08c0
000003b0: ff04 46bf bddf 2cbf 342a 84bc 467d 80bf

sequential_7/dense_23/MatMul f4 [6, 10]
-5.592751 -4.890056 -5.268069 -4.061405 0.11377691 0.2204734 -3.3428357 0.4666974
-4.331574 1.967052 0.9809162 0.99759215 0.3964016 0.06246243 -3.0856478 -0.9751661
-2.8286064 -0.0009724428 -1.1403495 -1.6869661 -1.904164 -0.8476686 0.9755049 0.17132144
-0.2561676 -1.6479057 0.24137388 0.95719695 0.19155896 -2.2564213 -0.045837663 0.17959692
-0.20191132 0.7216951 0.4192854 -0.5652305 0.6843089 0.25167152 0.0023186684 -1.1825175
0.31477585 0.34068596 0.18098152 -0.28916144 -0.040891655 0.5821872 1.010441 -1.0391264
0.70804167 0.47842208 -0.13582066 0.06662745 0.35404822 0.35461485 0.34654713 0.37856305
0.38647714 -0.40964624 0.100962125 0.43902975
00000000: d1f7 b2c0 577b 9cc0 0594 a8c0 08f7 81c0
00000010: de03 e93d c7c3 613e 05f1 55c0 f6f2 ee3e
00000020: 419c 8ac0 5cc8 fb3f 531d 7b3f 3362 7f3f
00000030: 27f5 ca3e 9bd8 7f3d 417b 45c0 7ca4 79bf
00000040: e307 35c0 88eb 7eba f9f6 91bf 81ee d7bf
00000050: a5bb f3bf cf00 59bf b0ba 793f e36e 2f3e
00000060: 6628 83be 93ee d2bf b72a 773e dc0a 753f
00000070: 0828 443e 3569 10c0 46c0 3bbd 41e8 373e
00000080: d7c1 4ebe 03c1 383f 93ac d63e f2b2 10bf
00000090: de2e 2f3f 17db 803e cdf4 173b bc5c 97bf
000000a0: 4d2a a13e 646e ae3e 3853 393e f80c 94be
000000b0: 027e 27bd 380a 153f 2156 813f 1802 85bf
000000c0: 3842 353f bdf3 f43e 9214 0bbe f973 883d
000000d0: cf45 b53e 1490 b53e a06e b13e 04d3 c13e
000000e0: 55e0 c53e 27bd d1be 3bc5 ce3d 82c8 e03e
